models/mlp_shallow.pth (torch, 137029 bytes, 8 tensors)

fc1.weight f4 [512, 50]
0	0xbd9180fb	-0.07104679
1	0x3dadef81	0.08492947
2	0xbc72dc55	-0.014823039
3	0x3da9b056	0.082855865
4	0x3deefa4e	0.116688356
5	0x3cb7e9d5	0.022450367
6	0x3dfe1615	0.124065556
7	0x3cd8b713	0.026454484
8	0x3d096c81	0.033550743
9	0x3cfc683b	0.03081142
10	0x3e175d36	0.14781651
11	0x3d3bc69d	0.04584371
12	0xbc4edf1e	-0.0126264375
13	0xbdea5117	-0.11441248
14	0x3da3844e	0.079842195
15	0xbd7c05db	-0.06152902
16	0xbdec5a8a	-0.115407065
17	0x3d82742e	0.06369816
18	0xbe078944	-0.13235956
19	0x3cec7176	0.028862696
20	0x3d8b6c09	0.068077154
21	0x3d46de6a	0.048551954
22	0xbdee6de8	-0.11642057
23	0x3d7bc99c	0.061471567
24	0xbd9bc39a	-0.076056674
25	0x3dd0156d	0.10160337
26	0xbdbf6677	-0.093457155
27	0x3e1f256f	0.15541624
28	0xbd157a3c	-0.036493525
29	0xbd9202f2	-0.07129468
30	0xbd0df879	-0.03466079
31	0xbd8f3a7f	-0.06993579
32	0xbd323354	-0.04350598
33	0x3e18de1a	0.14928475
34	0x3d4898aa	0.048973717
35	0xbe23aa99	-0.15983047
36	0x3d37c640	0.0448668
37	0x3d37a791	0.04483754
38	0x3e1e6c16	0.15470919
39	0x3db29afb	0.087209664
40	0xbd72bc18	-0.05926141
41	0xbd709810	-0.058738768
42	0xbd1a57b7	-0.037681308
43	0x3dee31ca	0.1163059
44	0x3dff2976	0.1245908
45	0x3da3108d	0.07962141
46	0xbd9d2655	-0.07673327
47	0xbde8dc9a	-0.113702014
48	0xbd3af230	-0.045641124
49	0x3d89fcf2	0.067376986
50	0xbce3fd6f	-0.027830807
51	0xbd0bff4e	-0.034179024
52	0x3cd83088	0.026390329
53	0xbdbc4441	-0.09192706
54	0xbda42439	-0.080147214
55	0x3e13b506	0.14424524
56	0xbce7957b	-0.02826952
57	0x3e0cd553	0.13753252
58	0x3d574b63	0.05256213
59	0x3d997a30	0.074940085
60	0xbdc7de33	-0.09759178
61	0xbdb78614	-0.0896112
62	0x3e5dca4b	0.216592
63	0x3a6980d4	0.00089074415
64	0xbd7a9ae5	-0.061182875
65	0x3dcc73a3	0.099829935
66	0xbd63937a	-0.055560566
67	0xbdb1abd1	-0.086753495
68	0xbdb406a2	-0.087903276
69	0x3dc93bd6	0.09825866
70	0x3c97b17c	0.018517248
71	0xba2e4ce1	-0.0006649029
72	0xbde3f8da	-0.11131449
73	0x3d935bbd	0.07195232
74	0x3e1b62f3	0.15174465
75	0xbd9cbcb6	-0.07653181
76	0x3cc0631f	0.023484765
77	0x3e000539	0.12501992
78	0x3de7553f	0.11295556
79	0x3c0cdec0	0.00859803
80	0x3df4c85f	0.1195228
81	0x3dd2a2c1	0.10284949
82	0xbe04a6f4	-0.12954313
83	0x3ba6c00a	0.005088811
84	0x3db5d459	0.08878393
85	0x3d97ef33	0.074186705
86	0xbdf09529	-0.117472
87	0x3dfa987a	0.12236114
88	0xbdbe542e	-0.092934
89	0xbb0127ea	-0.0019707629
90	0xbdd6ee4b	-0.104946695
91	0xbd8a7a5a	-0.06761618
92	0x3d6ef415	0.058338244
93	0xbd95ec9f	-0.073205225
94	0xbd9c8643	-0.07642796
95	0x3ce3d794	0.027812757
96	0x3c80cf8a	0.015723962
97	0xbdc94ec1	-0.09829474
98	0x3e1cbbc1	0.15305997
99	0xbdce787d	-0.10081575
100	0xbc968ac0	-0.018376708
101	0x3c905792	0.017619882
102	0xbdcda5fa	-0.10041423
103	0x3d4b9df1	0.04971117
104	0xbe0d7ee0	-0.1381793
105	0x3db0ef1c	0.086393565
106	0xbe0bfe07	-0.13671122
107	0xbcfed5ac	-0.031107746
108	0xbdfe6633	-0.12421837
109	0x3d977e21	0.07397104
110	0x3e17aad0	0.14811254
111	0xbbd85258	-0.006601613
112	0xbde0c702	-0.10975458
113	0x3c6c18e3	0.01441023
114	0xbe363aff	-0.17795943
115	0x3c310fe0	0.010807008
116	0xbbb95d60	-0.005656883
117	0xbd99f344	-0.07517102
118	0x3d36b3af	0.044604953
119	0xbdcf80c2	-0.101319805
120	0x3dae095b	0.08497878
121	0x3dba2ac4	0.09090188
122	0x3d1434aa	0.036183037
123	0x3c49f214	0.012325782
124	0x3def9039	0.1169743
125	0x3c79bb8c	0.015242469
126	0x3cb9a8e9	0.02266355
127	0x3dd7b81c	0.10533163
128	0x3d2d6e4f	0.042341527
129	0xbd941c32	-0.0723194
130	0xbd3c47c0	-0.045966864
131	0xbd487c2e	-0.048946552
132	0x3d493e76	0.049131833
133	0xbd65cb09	-0.056101833
134	0xbbea3233	-0.0071470975
135	0xbbce2e3d	-0.006292133
136	0x3da5f3e9	0.08103163
137	0xbd442460	-0.047886252
138	0xbde4acb0	-0.1116575
139	0x3d404f38	0.04695055
140	0x3daba82e	0.08381687
141	0x3d5e3c41	0.05425668
142	0xbe17ddd9	-0.14830722
143	0xbc4193fc	-0.011815067
144	0xbd6ba4b7	-0.05753013
145	0x3d804eef	0.062650554
146	0xbde2dbc9	-0.11077077
147	0x3d61004f	0.054931935
148	0xbd94288f	-0.072342984
149	0xbe07436f	-0.13209318
150	0xbce57fbe	-0.028015014
151	0x3c808261	0.01568717
152	0xbd26453d	-0.040593375
153	0xbd866f9b	-0.06564256
154	0x3da21798	0.079146564
155	0xbd356b64	-0.04429187
156	0x3dfb2745	0.122633494
157	0x3e3d2afd	0.1847343
158	0xbd5bd565	-0.053670306
159	0xbd91b6c7	-0.0711494
160	0x3e5d41ec	0.21607178
161	0xbd9b86bc	-0.07594058
162	0xbdac4f7c	-0.08413598
163	0x3dc25ee1	0.09490753
164	0xbde9e26e	-0.11420141
165	0xbda7ddf2	-0.081966296
166	0xbd6f880e	-0.05847936
167	0x3d33b34b	0.04387216
168	0x3dfd70ab	0.12375005
169	0x3d31c5c9	0.043401513
170	0x3dd5d080	0.10440159
171	0x3d6b1a96	0.0573984
172	0x3d9143c7	0.070930056
173	0x3deea69a	0.116528705
174	0xbd82afeb	-0.0638121
175	0xbc75a50b	-0.014992963
176	0xbd14b1e6	-0.03630247
177	0x3e5dff60	0.21679449
178	0xbd2cf1fe	-0.04222297
179	0xbcd7aee7	-0.026328517
180	0x3d944ab7	0.07240813
181	0xbdc098e4	-0.094041616
182	0xbd1c5fec	-0.038177416
183	0x3d9abca8	0.075555146
184	0x3e2cc3c5	0.16871555
185	0xbdf9d7e1	-0.12199379
186	0xbe2744fd	-0.1633491
187	0xbd9788ca	-0.07399137
188	0x3cbfa042	0.023391847
189	0xbe1ace26	-0.15117702
190	0x3c699637	0.014257005
191	0xbda4ad06	-0.08040814
192	0x3d417187	0.04722741
193	0xbd88f5cb	-0.06687506
194	0x3dbb5b55	0.091482796
195	0x3c61a6f1	0.013772712
196	0xbd7c3840	-0.06157708
197	0x3c801581	0.015635254
198	0xbc5e8d0e	-0.013583435
199	0xbb9270f9	-0.004469034
200	0x3d28d263	0.041216265
201	0x3c9be758	0.019031212
202	0xbcc695e0	-0.024241388
203	0xbd082bd0	-0.033244908
204	0x3b2ca779	0.0026344939
205	0xbdab6627	-0.083690934
206	0xbbf3f98c	-0.00744552
207	0x3d9b3a45	0.075794734
208	0xbdaa3030	-0.08309972
209	0xbda3292e	-0.07966839
210	0xbd16086f	-0.036629137
211	0xbbd66417	-0.0065426934
212	0xbd8a6ad5	-0.06758658
213	0x3e143a1a	0.14475289
214	0xbd985ad9	-0.07439203
215	0x3e22b45d	0.15889116
216	0x3e22387e	0.15841863
217	0x3d90cfa3	0.070708536
218	0xbdce1b8f	-0.1006385
219	0x3be303d1	0.006927945
220	0x3c14ae3c	0.009074744
221	0xbe1daf7c	-0.15398973
222	0x3e3105a2	0.17287305
223	0x3da5b9ad	0.080920555
224	0xbd2a54de	-0.041584842
225	0x3d9c3a34	0.07628289
226	0xbdab3468	-0.08359605
227	0x3dd32df5	0.103115
228	0xbd6e3e66	-0.058164977
229	0xbe2766ef	-0.1634786
230	0x3e4402f2	0.19141749
231	0x3e86d222	0.26332194
232	0xbd192e8e	-0.037397914
233	0xbd670396	-0.056399904
234	0xbccb1ff0	-0.024795502
235	0xbc3faee9	-0.011699417
236	0xbe024cc4	-0.12724596
237	0xbdc2009b	-0.09472772
238	0x3d4026b0	0.046911895
239	0x3d382061	0.044952754
240	0xbdf162d6	-0.117864296
241	0x3ceb7f70	0.02874729
242	0x3da715e6	0.08158474
243	0xbd92bfcf	-0.07165491
244	0xbb82283e	-0.0039720824
245	0x3e061739	0.13094796
246	0xbd7b6ec7	-0.061384942
247	0x3c466032	0.012107896
248	0xbc4b9515	-0.012425681
249	0xbd29d917	-0.0414668
250	0xbcd87b04	-0.026425846
251	0xbcba9c2a	-0.022779543
252	0xbdc2c9c1	-0.09511138
253	0x3dadc07e	0.084839806
254	0xbd5738ef	-0.05254453
255	0x3c0f50bd	0.008747277

fc1.bias f4 [512]
0	0x3dad0438	0.0844807
1	0xbde51fdf	-0.111877196
2	0x3c249160	0.010044426
3	0xbbf46da0	-0.0074593574
4	0x3d83ba20	0.06431985
5	0xbc97b6cc	-0.018519782
6	0x3db9f79a	0.090804294
7	0x3bc500e0	0.006012067
8	0xbe10be31	-0.14135052
9	0xbdac12b6	-0.08402006
10	0xbdf6da25	-0.120533265
11	0xbd0f2c5a	-0.034954406
12	0xbe0c9d4c	-0.13731879
13	0xbe0133c2	-0.126174
14	0xbd193232	-0.037401386
15	0x3dd6e2ac	0.10492453
16	0xbd68c968	-0.0568327
17	0x3d9ec3b8	0.07752174
18	0x3da5c7c8	0.08094746
19	0xbd20fa34	-0.039301112
20	0x3c2d8150	0.0105899125
21	0xbe084863	-0.13308863
22	0x3cd405c8	0.025881663
23	0xbd6d7806	-0.05797579
24	0xbdf2e6ae	-0.11860405
25	0x3c2caa90	0.010538712
26	0xbd8e03dd	-0.069343306
27	0xbd88096d	-0.06642423
28	0xbd68158e	-0.05666118
29	0x3dfc8e36	0.12331812
30	0x3bc3ade0	0.0059716552
31	0xbcf0d3dc	-0.029397897
32	0xbdf18924	-0.117937356
33	0xbcda9720	-0.02668339
34	0xbd95116f	-0.07278716
35	0xbe04956b	-0.12947623
36	0x3d9c1124	0.07620457
37	0x3db97514	0.09055534
38	0x3d5c76a0	0.053824067
39	0xbd5d5ccc	-0.054043576
40	0xbe099be2	-0.13438371
41	0x3cfc06d8	0.030764982
42	0xbdfdbc9a	-0.123894885
43	0xbd26e77a	-0.040748097
44	0xbe0df24a	-0.13861957
45	0xbd288bc8	-0.04114893
46	0x3cc0c460	0.023531139
47	0xbdac057b	-0.08399483
48	0xbdbf6b63	-0.09346654
49	0xbe012390	-0.12611222
50	0xbcac379c	-0.02102261
51	0x3c74e6a0	0.014947563
52	0xbe107338	-0.14106452
53	0x3d4f6948	0.050637513
54	0x3d5f95bc	0.054586157
55	0x3c0ef710	0.0087258965
56	0xbd900cf4	-0.070337206
57	0xbe0583ec	-0.13038605
58	0x3df4103a	0.119171575
59	0x3d72b3c4	0.05925347
60	0xbc6d9ca0	-0.014502674
61	0xbdad3aba	-0.08458467
62	0x3d9f3f9a	0.07775803
63	0x3dec9406	0.11551671
64	0x3daced9c	0.08443758
65	0x3d9f677c	0.0778341
66	0xbc4711c0	-0.012150228
67	0xbda7fe63	-0.08202817
68	0x3df693ca	0.12039907
69	0x3cb98300	0.022645473
70	0x3deeb41a	0.116554454
71	0xbb52cb80	-0.0032164752
72	0xbcc523e8	-0.024064973
73	0xbcd30c28	-0.025762632
74	0xbd74dde8	-0.05978194
75	0x3da7f35e	0.082007155
76	0x3e0b8af3	0.13627224
77	0xbc630e60	-0.013858408
78	0xbdd45a3e	-0.10368775
79	0xbd214734	-0.039374545
80	0xbe014fdf	-0.12628125
81	0xbd89f4ff	-0.067361824
82	0xbe0c4379	-0.13697614
83	0x3c14e6f0	0.009088263
84	0xbdc4d134	-0.09610215
85	0x3e0f3869	0.13986363
86	0x3d524c14	0.051342085
87	0x3ded5ce2	0.115899816
88	0xbd7d28b6	-0.061806403
89	0xbd277c38	-0.04088995
90	0xbbb60120	-0.0055543333
91	0x3c328670	0.01089631
92	0x3c0a6aa0	0.008448273
93	0x3d46e7d4	0.048560932
94	0x3cedb3c0	0.029016376
95	0xbd812e21	-0.063076265
96	0x3dd22e20	0.10262704
97	0x3dc66d6a	0.09688838
98	0xbdca4106	-0.098756835
99	0xbcb0c6a8	-0.021579102
100	0xbd0b68e2	-0.03403557
101	0xbda89190	-0.08230889
102	0xbdcb901c	-0.09939596
103	0xbda52b24	-0.08064869
104	0x3deb68ee	0.11494623
105	0x3e0437d9	0.12911929
106	0x3d440efc	0.047865853
107	0x3d59913c	0.053117022
108	0x3e102473	0.14076404
109	0xbd9dca12	-0.077045575
110	0xbaf59282	-0.0018735679
111	0x3dac7dac	0.084224075
112	0xbd2fd29e	-0.04292547
113	0xbde4dc0b	-0.11174782
114	0x3db59c4a	0.088677004
115	0x3d2c4da0	0.042066216
116	0x3dbcf6d4	0.09226766
117	0xbe04d8f7	-0.1297339
118	0x3cbc0730	0.022952646
119	0x3c3a7dd0	0.011382535
120	0x3da38652	0.07984604
121	0x3d3f29c4	0.04667069
122	0x3c1c4e30	0.009540126
123	0x3ca9bf70	0.020721167
124	0xbdf37f22	-0.11889483
125	0x3dd35386	0.10318665
126	0x3de8545a	0.11344214
127	0xbc9c5608	-0.019083992
128	0x3d3b6ad8	0.04575619
129	0xbcff33b8	-0.031152591
130	0x3d9463d2	0.07245602
131	0x3d188bc4	0.037242666
132	0x3e0646fb	0.13113014
133	0xbdd1499e	-0.102191195
134	0xbe0a5790	-0.13509965
135	0xbd863477	-0.065529756
136	0x3b556180	0.0032559335
137	0x3c9ac670	0.01889345
138	0xbc431510	-0.011906877
139	0xbe04f69a	-0.12984696
140	0x3bdbe3a0	0.0067104846
141	0x3cedf6b0	0.029048294
142	0x3dadb9ca	0.08482702
143	0x3da355ee	0.07975374
144	0x3d788098	0.06066951
145	0x3d049884	0.032372013
146	0x3e0bfc33	0.13670425
147	0x3dbf048a	0.09327038
148	0x3dbbbd56	0.09166972
149	0xbe0a7112	-0.13519695
150	0xbd8c6e73	-0.06857004
151	0x3db31f4e	0.08746205
152	0xbde93890	-0.113877416
153	0x3d866b48	0.06563431
154	0x3d86b3b8	0.065772474
155	0xbccfd364	-0.025369354
156	0x3de27002	0.1105652
157	0x3d16c674	0.036810353
158	0x3d8df660	0.06931758
159	0x3d964fb8	0.07339424
160	0x3e0a7823	0.13522391
161	0x3d4f6b58	0.05063948
162	0x3dcf2d82	0.10116102
163	0xbc0f1770	-0.008733615
164	0xbca3c5e4	-0.019991823
165	0x3bd93180	0.0066282153
166	0x3dcedabc	0.10100314
167	0xbe09bf46	-0.13451871
168	0xbdecd64a	-0.1156431
169	0xbcba48a8	-0.022739723
170	0x3d45aa4c	0.04825811
171	0xbbf9f7a0	-0.007628396
172	0xbc188c30	-0.009310767
173	0xbe07d971	-0.13266541
174	0xbdafd495	-0.08585469
175	0x3dfbaf76	0.12289326
176	0x3d5db6f4	0.054129556
177	0xbe06172a	-0.13094774
178	0xbd2432ba	-0.04008744
179	0x3d2cc640	0.042181253
180	0xbd83659c	-0.06415865
181	0x3db502d0	0.08838427
182	0xbd77403a	-0.060363986
183	0x3d0595c0	0.032613516
184	0x3db11558	0.08646649
185	0xbda3cb60	-0.07997775
186	0x3d415750	0.04720241
187	0x3d53e2d4	0.051729992
188	0xbdd7f684	-0.10545066
189	0x3c2782f0	0.010224089
190	0xbd85b31e	-0.065283045
191	0x3bf4ece0	0.0074745268
192	0xbcf9762c	-0.030451857
193	0x3d5cb8b0	0.05388707
194	0x3defb15a	0.11703749
195	0xbd502e20	-0.05082524
196	0xbdbff324	-0.09372547
197	0xbb8af420	-0.0042405277
198	0x3dcf9b4e	0.10137044
199	0xbdc8e17e	-0.09808634
200	0x3c853528	0.016260698
201	0xbcdcbbb4	-0.026944973
202	0xbe070b07	-0.131878
203	0xbda880e9	-0.08227713
204	0xbca515f8	-0.020152077
205	0x3d789110	0.060685217
206	0x3d66a4d4	0.056309536
207	0xbd687cd4	-0.05675967
208	0xbe0b594b	-0.13608281
209	0x3d2edfa8	0.042693764
210	0x3d2aff48	0.04174736
211	0x3d8eaaa0	0.06966138
212	0xbdb64bd6	-0.08901183
213	0xbc538100	-0.012909174
214	0x3dfdc662	0.12391354
215	0x3d9ff78c	0.07810888
216	0x3d775e88	0.060392886
217	0x3dd165d4	0.102245
218	0xbd743b2e	-0.05962675
219	0xbd506d7c	-0.050885662
220	0xbdc5f88c	-0.09666547
221	0xbd94dac6	-0.0726829
222	0x3df5b8f6	0.11998169
223	0x3ddfa60e	0.10920344
224	0x3dd71c00	0.105033875
225	0xbdcbe91e	-0.09956573
226	0xbde66e60	-0.11251521
227	0xbd502d5a	-0.0508245
228	0xbe04a5b9	-0.12953843
229	0x3d07dbfc	0.033168778
230	0xbde05606	-0.10953908
231	0x3d2f2d54	0.042767838
232	0xbdd89ea2	-0.10577132
233	0x3dd4ce38	0.103908956
234	0xbd888ea1	-0.06667829
235	0xbd428db0	-0.047498405
236	0xbdd857ee	-0.10563646
237	0x3d319bbc	0.04336141
238	0xbaf9bc00	-0.0019053221
239	0x3d7f8874	0.06238599
240	0x3db609a0	0.088885546
241	0xbc40e070	-0.01177226
242	0xbdef5a43	-0.11687138
243	0x3c85e2b8	0.01634346
244	0x3dea0a5a	0.11427756
245	0x3e0eaab9	0.13932313
246	0xbd888700	-0.06666374
247	0x3e0be847	0.13662826
248	0xbded91ac	-0.1160005
249	0x3d73426c	0.059389517
250	0x3dd75ad8	0.10515374
251	0xbdd17b10	-0.102285504
252	0xbdbddaf4	-0.092702776
253	0x3cd19eb0	0.025588363
254	0xbcffc030	-0.031219572
255	0xbe00a62d	-0.12563391

bn1.weight f4 [512]
0	0x3f8b876a	1.09007
1	0x3f80c098	1.0058775
2	0x3f865913	1.0495933
3	0x3f890ae3	1.0706447
4	0x3f910854	1.1330667
5	0x3f8efd75	1.1171099
6	0x3f8ab2d7	1.0835828
7	0x3f8cb6b1	1.0993253
8	0x3f86b529	1.0524036
9	0x3f89ff86	1.0781105
10	0x3f8bd6a5	1.0924879
11	0x3f8ee441	1.1163408
12	0x3f85c7e2	1.0451624
13	0x3f829212	1.0200827
14	0x3f96669d	1.1750065
15	0x3f87f11d	1.0620457
16	0x3f90e825	1.1320845
17	0x3f8a44ec	1.0802283
18	0x3f85e101	1.0459291
19	0x3f89a32d	1.0752922
20	0x3f823a99	1.0174133
21	0x3f8ee28b	1.1162885
22	0x3f8f2fe0	1.1186485
23	0x3f839b67	1.02818
24	0x3f83d36b	1.0298895
25	0x3f87a5c3	1.0597461
26	0x3f865582	1.0494845
27	0x3f863c1a	1.0487092
28	0x3f8f68f4	1.1203904
29	0x3f878fc0	1.0590744
30	0x3f8b81e0	1.089901
31	0x3f89b924	1.0759625
32	0x3f91cbb4	1.139029
33	0x3f873f2d	1.0566155
34	0x3f874cc9	1.0570308
35	0x3f859ea5	1.043904
36	0x3f8c56b1	1.0963956
37	0x3f927662	1.1442378
38	0x3f88f6dc	1.0700336
39	0x3f8f326c	1.1187263
40	0x3f86631f	1.0498999
41	0x3f9445a0	1.1583748
42	0x3f9040f1	1.1269819
43	0x3f8a200d	1.0791031
44	0x3f828f94	1.0200067
45	0x3f8833a5	1.0640761
46	0x3f8273b4	1.019156
47	0x3f882df2	1.0639021
48	0x3f871e7e	1.055618
49	0x3f8f78c3	1.1208729
50	0x3f8c507f	1.0962065
51	0x3f90a6fb	1.1300958
52	0x3f8c09cf	1.0940493
53	0x3f886e87	1.065873
54	0x3f96f480	1.1793365
55	0x3f873307	1.0562447
56	0x3f84af28	1.0365953
57	0x3f936e57	1.1518048
58	0x3f8416c0	1.0319443
59	0x3f8ae43a	1.0850899
60	0x3f86d9f7	1.0535268
61	0x3f885f6e	1.0654123
62	0x3f8ebb50	1.1150913
63	0x3f8feb61	1.1243707
64	0x3f8c2733	1.0949463
65	0x3f8de203	1.1084598
66	0x3f882370	1.0635815
67	0x3f86c8fb	1.0530084
68	0x3f864484	1.0489659
69	0x3f843a00	1.03302
70	0x3f89b6dc	1.0758929
71	0x3f897345	1.0738302
72	0x3f842fe9	1.0327121
73	0x3f890119	1.070346
74	0x3f83cd0e	1.0296953
75	0x3f89036f	1.0704173
76	0x3f8a0cbb	1.0785135
77	0x3f84e204	1.0381474
78	0x3f88c791	1.0685903
79	0x3f8b33f2	1.0875227
80	0x3f838c86	1.0277259
81	0x3f86a323	1.0518535
82	0x3f86e643	1.053902
83	0x3f88410e	1.0644853
84	0x3f887cfd	1.0663143
85	0x3f8c6f41	1.0971452
86	0x3f86ecb9	1.0540992
87	0x3f832628	1.0246019
88	0x3f8ef320	1.1167946
89	0x3f8e7682	1.1129916
90	0x3f89c4d8	1.0763197
91	0x3f8c6d3e	1.0970838
92	0x3f8c5aae	1.0965173
93	0x3f8462ca	1.0342648
94	0x3f8a7225	1.0816084
95	0x3f8c8971	1.0979444
96	0x3f84336b	1.0328192
97	0x3f851070	1.0395641
98	0x3f86fc12	1.0545676
99	0x3f81f834	1.015387
100	0x3f887197	1.0659665
101	0x3f883259	1.0640365
102	0x3f8388c2	1.027611
103	0x3f8a776d	1.0817696
104	0x3f85d0d9	1.045436
105	0x3f8cb845	1.0993735
106	0x3f88700a	1.0659192
107	0x3f8a4371	1.0801831
108	0x3f8accba	1.0843728
109	0x3f9166e3	1.1359524
110	0x3f8ce920	1.1008644
111	0x3f909017	1.1293973
112	0x3f87da25	1.0613447
113	0x3f89ae66	1.0756347
114	0x3f8a9d85	1.0829321
115	0x3f87521c	1.0571933
116	0x3f8972a3	1.0738109
117	0x3f8341df	1.0254477
118	0x3f896724	1.0734601
119	0x3f861c24	1.0477338
120	0x3f8d8191	1.1055166
121	0x3f89f23d	1.077705
122	0x3f8e3b91	1.1111928
123	0x3f8a11b2	1.078665
124	0x3f8e5afb	1.1121515
125	0x3f8d307b	1.103042
126	0x3f88ac9b	1.0677675
127	0x3f90b4f9	1.1305228
128	0x3f84197b	1.0320276
129	0x3f85f9a7	1.0466813
130	0x3f861ce8	1.0477571
131	0x3f8b5bc9	1.0887386
132	0x3f8d6fcc	1.1049743
133	0x3f89d063	1.076672
134	0x3f82655a	1.018718
135	0x3f87e584	1.0616918
136	0x3f9881c5	1.1914603
137	0x3f8c27a7	1.0949601
138	0x3f833803	1.0251468
139	0x3f88aec8	1.0678339
140	0x3f8c3f99	1.0956908
141	0x3f8b3e11	1.0878316
142	0x3f899bbb	1.075065
143	0x3f85a7ff	1.0441893
144	0x3f886552	1.065592
145	0x3f94dbbe	1.162956
146	0x3f85d0e8	1.0454378
147	0x3f820bad	1.0159813
148	0x3f904765	1.1271788
149	0x3f87d3ba	1.0611489
150	0x3f8bcf96	1.0922725
151	0x3f877f3b	1.0585703
152	0x3f84a382	1.0362399
153	0x3f8aea87	1.0852822
154	0x3f8a6f7d	1.0815274
155	0x3f827c8e	1.0194261
156	0x3f92036d	1.1407295
157	0x3f83ff0e	1.0312212
158	0x3f8608c3	1.0471424
159	0x3f836339	1.0264655
160	0x3f8832e8	1.0640535
161	0x3f87a7eb	1.059812
162	0x3f898f52	1.0746863
163	0x3f8f58a7	1.119893
164	0x3f84f64c	1.0387664
165	0x3f84aacf	1.0364627
166	0x3f89816a	1.0742619
167	0x3f866db4	1.0502229
168	0x3f8944bd	1.0724102
169	0x3f946c8d	1.1595627
170	0x3f8e8013	1.1132835
171	0x3f82b39c	1.0211062
172	0x3f87c70f	1.0607623
173	0x3f8eb33b	1.1148447
174	0x3f8f81e1	1.1211511
175	0x3f8e61ca	1.1123593
176	0x3f8d0c69	1.1019412
177	0x3f87481c	1.0568881
178	0x3f8dbf33	1.1073974
179	0x3f863739	1.0485603
180	0x3f8fbc34	1.122931
181	0x3f847122	1.0347025
182	0x3f87d442	1.0611651
183	0x3f90522b	1.1275076
184	0x3f8bc1d2	1.0918524
185	0x3f8756ad	1.0573326
186	0x3f93745a	1.1519883
187	0x3f881893	1.06325
188	0x3f8a24e4	1.0792508
189	0x3f8369a0	1.0266609
190	0x3f8846ab	1.0646566
191	0x3f841fcc	1.0322204
192	0x3f877a09	1.0584117
193	0x3f898347	1.0743188
194	0x3f87d7e1	1.0612756
195	0x3f874602	1.056824
196	0x3f892736	1.0715091
197	0x3f864d21	1.0492288
198	0x3f879be6	1.0594451
199	0x3f8be3cd	1.0928894
200	0x3f8befdf	1.0932578
201	0x3f8fdce3	1.1239284
202	0x3f934e50	1.1508274
203	0x3f8cf2f3	1.1011642
204	0x3f89508d	1.0727707
205	0x3f8fa422	1.1221964
206	0x3f898d94	1.0746331
207	0x3f850f09	1.0395213
208	0x3f8634af	1.0484828
209	0x3f90566b	1.1276373
210	0x3f89ea42	1.0774615
211	0x3f8a6650	1.0812473
212	0x3f87adcd	1.0599915
213	0x3f903570	1.1266308
214	0x3f8ae232	1.0850279
215	0x3f870bed	1.0550514
216	0x3f89ad6f	1.0756053
217	0x3f8ae457	1.0850934
218	0x3f87c2f2	1.0606368
219	0x3f8f34c2	1.1187975
220	0x3f8b248c	1.0870528
221	0x3f886f0f	1.0658892
222	0x3f8a913e	1.0825574
223	0x3f88fde4	1.0702481
224	0x3f8783ae	1.058706
225	0x3f8e9753	1.113993
226	0x3f8935a4	1.0719495
227	0x3f881da0	1.0634041
228	0x3f882b47	1.0638207
229	0x3f8c2ac1	1.0950547
230	0x3f902e8e	1.1264207
231	0x3f86637d	1.0499111
232	0x3f8442b9	1.0332862
233	0x3f8ac682	1.084183
234	0x3f87aea0	1.0600166
235	0x3f8b031a	1.0860322
236	0x3f8a73c9	1.0816585
237	0x3f8517e9	1.0397922
238	0x3f86f97d	1.0544888
239	0x3f935611	1.151064
240	0x3f8b82ed	1.089933
241	0x3f8ec9f1	1.1155378
242	0x3f85d9e4	1.045712
243	0x3f8c761a	1.0973542
244	0x3f8917d0	1.0710392
245	0x3f86c0cd	1.0527588
246	0x3f840888	1.0315104
247	0x3f8a1575	1.0787798
248	0x3f850cc3	1.039452
249	0x3f87c948	1.0608301
250	0x3f8277eb	1.0192846
251	0x3f87d742	1.0612566
252	0x3f8a6cdc	1.0814471
253	0x3f93aad7	1.1536511
254	0x3f850c49	1.0394374
255	0x3f8b39e1	1.0877038

bn1.bias f4 [512]
0	0x3d45f669	0.0483307
1	0xbb196b4b	-0.00234099
2	0x3b4d6fcf	0.003134716
3	0x3b58d91e	0.0033088396
4	0xbd1baa71	-0.038004342
5	0xbd041d26	-0.03225436
6	0xbc09488f	-0.008379116
7	0xbc819d03	-0.01582194
8	0x3ab67733	0.0013921022
9	0xbc19b2e0	-0.009381026
10	0x3cb70842	0.022342805
11	0x3bf3286a	0.007420589
12	0x3a8ad1ce	0.0010591091
13	0xbb42151d	-0.0029614635
14	0x3d4af9fd	0.049554814
15	0x3d40f35c	0.047107086
16	0xbcf77870	-0.030208796
17	0x3c9f4d74	0.019446112
18	0x3c4af947	0.012388534
19	0x3d4c63ef	0.04989999
20	0xbcb28b5e	-0.021794971
21	0x3d05aa00	0.032632828
22	0xbd42ee76	-0.047590695
23	0x3cd0cb53	0.025487578
24	0x3c315041	0.010822357
25	0x3ca41c70	0.020033091
26	0xbc06419f	-0.008194356
27	0x3c1653d9	0.009175264
28	0x3c82d7c7	0.015972031
29	0xbcb35b49	-0.021894114
30	0xbca044f5	-0.019564131
31	0x3d5c56a0	0.05379355
32	0xbcacfd57	-0.021116896
33	0x3bb74795	0.00559325
34	0xbb6bf452	-0.003600378
35	0xbc91d702	-0.017802719
36	0x3c3dc02c	0.011581462
37	0x3cfcf9c6	0.03088082
38	0xbad0b4f7	-0.0015923072
39	0xbb94af1c	-0.004537476
40	0x3d2a8f80	0.04164076
41	0xbbb28ab5	-0.005448664
42	0xbbd430a2	-0.006475524
43	0x3b56aa56	0.0032755337
44	0xbc72045a	-0.014771545
45	0x3bfa8a8f	0.007645912
46	0xbb6b6a01	-0.0035921338
47	0x3d12b537	0.03581735
48	0x3c9d0747	0.01916851
49	0xbcc87099	-0.024467753
50	0x3d1c6a5b	0.038187366
51	0xba7f38c9	-0.00097359397
52	0xbd01c5cc	-0.031682774
53	0xbc3da4ba	-0.011574918
54	0x3b28dc93	0.0025766238
55	0x3c5cddb1	0.01348059
56	0x3b1d2427	0.0023977847
57	0xbcb6138d	-0.02222612
58	0xbca63db7	-0.0202931
59	0x3c0e8595	0.008698841
60	0x3c29be84	0.010360364
61	0xbc65ba31	-0.014021442
62	0xbb58f7ff	-0.0033106802
63	0xbc8bc852	-0.017063294
64	0x3ab20806	0.0013582713
65	0xbc4ed178	-0.012623183
66	0xbc1c972e	-0.009557528
67	0x3cb06194	0.021530904
68	0x3c18ded1	0.009330467
69	0xbd11a539	-0.03555796
70	0xbbc627ad	-0.00604721
71	0x3cb13984	0.02163387
72	0x3b9a6a0a	0.004712348
73	0x3cdbbd35	0.02682362
74	0xbb40ec57	-0.0029437745
75	0x3cfe0a20	0.031010687
76	0x3cb34e9a	0.021888066
77	0xbc92a78e	-0.017902162
78	0x3bc85aee	0.0061143553
79	0x3ce976fe	0.028499123
80	0x3a46f257	0.0007589212
81	0xbcc70828	-0.024295881
82	0xbd3c35a7	-0.045949604
83	0xbc07cf64	-0.008289192
84	0x3c1a3030	0.009410903
85	0xbd3f330d	-0.046679545
86	0x3d41c8f1	0.047310773
87	0xbb8440c7	-0.0040360424
88	0xbc029c4e	-0.007971836
89	0x3c440918	0.011965059
90	0x3b9dfe6a	0.0048215883
91	0x3d2df4f4	0.042469934
92	0x3d01e041	0.031708006
93	0x3bc41151	0.0059835096
94	0x3d085cef	0.033291753
95	0xbce68ce5	-0.028143356
96	0xbd0ec6bf	-0.034857508
97	0xbc970910	-0.018436939
98	0xbc7e2d56	-0.015513739
99	0xbc390f21	-0.011295111
100	0xbcf600bc	-0.030029647
101	0x3d211b34	0.039332584
102	0xbcb28711	-0.02179292
103	0x3b80e059	0.0039329943
104	0x3c70eb88	0.0147045925
105	0xbca0f04a	-0.019645829
106	0x3c02e9c6	0.007990306
107	0xbd3b1d20	-0.045682073
108	0xbaf0b26d	-0.0018363722
109	0xbaa0f3b0	-0.0012279656
110	0xbbc36634	-0.0059631113
111	0x3c86779d	0.016414458
112	0x3c085fe8	0.008323647
113	0x3b962bc9	0.0045828563
114	0xbcf52efe	-0.029929634
115	0xbcbd2844	-0.02309049
116	0x3c8e8e04	0.017401703
117	0xbd002131	-0.031281654
118	0xbbff3042	-0.007787735
119	0xbc7d0e6b	-0.015445332
120	0xbd577a28	-0.05260673
121	0x3c7a7e0c	0.015288841
122	0x3bb8137d	0.0056175576
123	0xbad4b542	-0.0016228335
124	0x3c138e1e	0.009006051
125	0x3c60b833	0.0137157915
126	0xbc125431	-0.008931206
127	0xbcc4973f	-0.023997901
128	0xbc70ea3f	-0.014704286
129	0xbbc916cb	-0.0061367503
130	0x3cb6998f	0.02229002
131	0xbd1b2003	-0.037872326
132	0x3c8b957f	0.017039059
133	0x3cd9edc5	0.026602635
134	0xbd6c4eb7	-0.057692256
135	0x3b5ef88b	0.0034022655
136	0x3cc6b1fd	0.024254793
137	0xbba4b940	-0.0050269663
138	0x3d560bce	0.05225735
139	0x3bd540e1	0.0065079783
140	0xb920afba	-0.00015324252
141	0xba5ad515	-0.0008347792
142	0xbcd5a0b5	-0.026077608
143	0xbc99a4f9	-0.018755423
144	0x3bfba7c0	0.0076799095
145	0x3ad0c0c5	0.001592659
146	0x3c7af17a	0.015316362
147	0x3a58a7ed	0.0008264769
148	0x3c9bfb72	0.019040797
149	0x3c9ed6e5	0.01938958
150	0xbbd1cfbb	-0.006402937
151	0x3d84c2c3	0.0648246
152	0xbc209984	-0.009802226
153	0xbcaf9cde	-0.021437105
154	0x3c07e4de	0.008294312
155	0x3bfb67c5	0.0076722824
156	0x3cdaeecb	0.026725193
157	0x3baa63b2	0.005199873
158	0xbb81d891	-0.0039625843
159	0x3c9ebca1	0.019377055
160	0x3d2c6acb	0.042094033
161	0xbd39d14f	-0.045365628
162	0x3cc1fbae	0.02367958
163	0xbc5ff2b0	-0.013668701
164	0x3cf54eb7	0.02994476
165	0x3c965535	0.018351177
166	0xbc80c38d	-0.015718246
167	0xbcb70f0e	-0.022346046
168	0x3cb34e06	0.02188779
169	0xbcafd4bf	-0.02146375
170	0x3bd0bbf4	0.006370062
171	0x3b9085d5	0.0044104853
172	0xbbf0fc57	-0.0073543
173	0xbd35d119	-0.044388864
174	0x3c6f0d8b	0.014590631
175	0x3c8ae586	0.016955148
176	0x3cea5da2	0.0286091
177	0x3b47d600	0.0030492544
178	0xbb7a89aa	-0.0038229027
179	0xbc4e1d50	-0.012580231
180	0x3d419371	0.04725975
181	0xbcd3612b	-0.02580317
182	0x3b2e7c68	0.0026624445
183	0xbd0248e1	-0.031807784
184	0x3c1a5969	0.009420731
185	0x3ca188f1	0.019718619
186	0xbbdd6192	-0.006756016
187	0xbcdb21dd	-0.026749546
188	0xbc1f3f49	-0.009719678
189	0x3cd15bc6	0.025556456
190	0xbd2bfb38	-0.041987628
191	0xbcbf1cbd	-0.023329133
192	0xbcdaf9cc	-0.02673044
193	0x3cd96a13	0.026539838
194	0x3c7c836a	0.015412191
195	0xbcb54809	-0.022129076
196	0xbd44fa73	-0.04809041
197	0xbb89cc92	-0.004205295
198	0xbcf7ffe8	-0.030273393
199	0x3c937f14	0.018004932
200	0xbc0e242b	-0.008675615
201	0x3c10df4b	0.0088423
202	0x3cfd3e10	0.030913383
203	0x3cda42dc	0.02664321
204	0x3c02a161	0.007973046
205	0x3bb97833	0.005660081
206	0xbb86ce9c	-0.004113985
207	0xbccaf609	-0.024775522
208	0xbb92a471	-0.0044751693
209	0x3c0082f3	0.007843721
210	0x3c64efef	0.01397322
211	0xbc34b710	-0.011029974
212	0x3c9edc1f	0.019392071
213	0x3986dd21	0.00025723226
214	0x3c9f4f70	0.019447058
215	0x3c7b0a8f	0.015322342
216	0x3c8c9cd7	0.01716463
217	0x3c2a6d79	0.010402077
218	0xbb3f7f45	-0.0029220146
219	0xbbedacd8	-0.0072532706
220	0xbc5b32f2	-0.0133788455
221	0x3ca4a132	0.020096395
222	0xbcdf7933	-0.027279472
223	0x3bda952b	0.0066706142
224	0xbb68b7e0	-0.0035509989
225	0x3c8377e3	0.016048377
226	0xbbecf2fd	-0.007231115
227	0xbcd718e6	-0.02625699
228	0x3ad7ebf6	0.001647352
229	0x3c3b85bc	0.011445459
230	0xbb56ca66	-0.0032774447
231	0x3ca30cb8	0.019903526
232	0x3cc99dca	0.024611373
233	0x3cd3143a	0.02576648
234	0xbc037cdb	-0.008025373
235	0x3c1acc88	0.009448178
236	0xbc453f54	-0.012039024
237	0x3b5adc07	0.0033395307
238	0xbcf996ea	-0.03046747
239	0xbc737cba	-0.01486128
240	0x3cf5a76f	0.029987065
241	0x3cc85338	0.024453744
242	0xbc46a9d7	-0.012125454
243	0xbc76a147	-0.0150531
244	0xbc7080d0	-0.014679149
245	0xbc7ce30d	-0.0154349925
246	0x3a17b69d	0.00057874044
247	0x3b84c905	0.0040522837
248	0xbc71d3e4	-0.014759991
249	0xbc91a6d1	-0.01777974
250	0xbc88b31d	-0.01668697
251	0xbc1b11a3	-0.009464654
252	0x3bd416b3	0.0064724325
253	0xbb7b27b9	-0.0038323237
254	0xbbf6a92c	-0.007527491
255	0xbaf37451	-0.0018574094

bn1.running_mean f4 [512]
0	0xbc64ba30	-0.013960406
1	0xbe0cd602	-0.13753513
2	0xbb637f1e	-0.003471322
3	0xbcdba6c3	-0.026812917
4	0x3e10f057	0.14154182
5	0xbd5618bd	-0.052269686
6	0x3e19b32c	0.15009755
7	0x3d94122d	0.07230029
8	0xbdd8c730	-0.10584867
9	0xbdc0cfbb	-0.094146214
10	0xbe304308	-0.1721307
11	0xbb7c65b0	-0.003851276
12	0xbe313b23	-0.17307715
13	0xbe75bcc1	-0.23997785
14	0x3ccb823a	0.02484237
15	0x3d87263d	0.0659909
16	0xbd371640	-0.044698954
17	0x3dc868c4	0.097856075
18	0x3e15ecb0	0.1464107
19	0x3ca8f329	0.02062376
20	0xbc18217e	-0.009285329
21	0xbd962d3c	-0.073328465
22	0x3dbca96c	0.09212002
23	0xbc6af6b8	-0.014341049
24	0xbe1ab452	-0.15107849
25	0x3d5ea3fb	0.054355603
26	0x3d2ad9f5	0.041711766
27	0xbe1633f1	-0.14668252
28	0xbd9cafc6	-0.076507136
29	0x3e1ed3c8	0.15510476
30	0xbcf67101	-0.030083181
31	0xbdf2adaa	-0.1184953
32	0xbde152c6	-0.11002116
33	0xbd81c0df	-0.06335615
34	0xbcfed988	-0.031109586
35	0xbe339a2a	-0.17539278
36	0x3ddb48b1	0.10707224
37	0x3e209f61	0.15685798
38	0x3dfbb752	0.12290825
39	0xbe1a5e82	-0.15075114
40	0xbe0c94e5	-0.13728674
41	0x3db6d269	0.08926851
42	0xbdacc1a8	-0.084353745
43	0xbd550332	-0.052005
44	0xbe3cfa9b	-0.18454973
45	0xbca0ef94	-0.01964549
46	0x3d79b089	0.060959373
47	0xbd807fc0	-0.062743664
48	0xbdf143d2	-0.11780514
49	0xbd8c752f	-0.068582885
50	0xbc6c187c	-0.014410134
51	0x3cc3c6c2	0.023898486
52	0xbdf0f8ea	-0.117662266
53	0x3e0ff65e	0.14058825
54	0x3df5da4c	0.120045274
55	0x3d030a99	0.03199253
56	0x3c674255	0.014114936
57	0xbdea7ba2	-0.11449362
58	0x3dc9b91a	0.098497584
59	0x3d7b306e	0.061325483
60	0x3d7e1b7b	0.062037926
61	0xbd40cab3	-0.04706831
62	0x3c8d23ec	0.017229043
63	0x3e48f426	0.19624385
64	0x3dd87402	0.10569002
65	0x3d87bfd8	0.06628388
66	0xbda35469	-0.07975084
67	0xbd0b0bc4	-0.033946767
68	0x3e3f9214	0.18708068
69	0x3c43a0f4	0.01194023
70	0x3e3430f6	0.17596802
71	0x3d195c6b	0.037441652
72	0x3d6edef0	0.05831808
73	0xbd42f75d	-0.047599185
74	0xbe15b890	-0.14621186
75	0x3ddf7640	0.10911226
76	0x3dcbb09a	0.099457934
77	0x3ba287b1	0.0049600233
78	0xbe3bc248	-0.18335831
79	0xbdbe1c51	-0.09282745
80	0xbdb6f3be	-0.08933209
81	0xbd0e8777	-0.034797158
82	0xbe1ec7b2	-0.15505865
83	0xbc93f4c8	-0.018061057
84	0xbcb522c7	-0.02211131
85	0x3deed9b2	0.11662616
86	0x3cd3c42b	0.025850376
87	0x3dae9a30	0.08525503
88	0xbd4ba383	-0.049716484
89	0xbd6c3cc4	-0.057675138
90	0x3d00ae6c	0.03141634
91	0x3c5d8836	0.013521245
92	0xbd0dc1c4	-0.034608617
93	0x3d618cd1	0.055065934
94	0x3c030ec4	0.007999126
95	0xbd8e4cc2	-0.06948234
96	0x3d8ee725	0.06977681
97	0x3cd0bee4	0.025481649
98	0xbdaa9a74	-0.08330241
99	0xbd89ecbe	-0.06734608
100	0xbdc2b8b6	-0.09507887
101	0xbc287784	-0.010282401
102	0xbe3160b5	-0.17322047
103	0xbc985247	-0.01859392
104	0x3df44a7b	0.119282685
105	0x3e13312c	0.14374226
106	0x3e10f838	0.14157188
107	0x3d450452	0.048099823
108	0x3e17f3dd	0.1483912
109	0xbd26e4dc	-0.0407456
110	0xbd379703	-0.04482175
111	0x3e1e14f6	0.15437683
112	0xbbe07ac8	-0.006850574
113	0xbdf7409a	-0.12072869
114	0x3dad52e3	0.08463075
115	0x3dd02728	0.101637185
116	0x3d0ac4b3	0.033878993
117	0xbe11f9f3	-0.14255504
118	0x3c1cded5	0.009574612
119	0x3d308053	0.04309113
120	0x3df67aff	0.120351784
121	0xbdb1b962	-0.08677937
122	0x3bf8cf00	0.0075930357
123	0x3db4f9cc	0.088367075
124	0xbdf60b32	-0.12013854
125	0x3e57e210	0.2108233
126	0x3dacc289	0.08435542
127	0xbc214750	-0.009843662
128	0x3db09429	0.08622009
129	0x3d699bd7	0.057033386
130	0x3d9cb687	0.07652002
131	0x3cdada64	0.026715465
132	0x3e0968cc	0.13418883
133	0xbdead0b1	-0.11465586
134	0xbe0ed909	-0.1394998
135	0xbbbaf3a0	-0.005705312
136	0xbcc5c7e7	-0.024143172
137	0xbc98606e	-0.018600669
138	0xbd273b20	-0.04082787
139	0xbe36bdd9	-0.17845859
140	0xbd0ed930	-0.034875095
141	0xbcdcb640	-0.026942372
142	0x3e0fe6c0	0.14052868
143	0x3da9a0f0	0.082826495
144	0x3cbcabc4	0.023031123
145	0x3d37946f	0.04481929
146	0x3e30bcce	0.17259523
147	0x3cfbe7c2	0.03075016
148	0x3de7ac25	0.11312131
149	0xbe220a84	-0.15824324
150	0xbc93dc7f	-0.018049477
151	0x3e011e64	0.1260925
152	0xbe01aa8a	-0.12662712
153	0x3da9dae8	0.08293706
154	0x3e1d18e7	0.1534153
155	0xbd6e19bc	-0.05813001
156	0x3de635cb	0.11240729
157	0x3d21a965	0.039468188
158	0x3e1a48f2	0.15066889
159	0x3cc9cb90	0.024633199
160	0x3dbd42aa	0.09241231
161	0xbd3374b2	-0.04381246
162	0x3d7bc032	0.06146259
163	0xbd8216f0	-0.06352031
164	0xbe154b68	-0.14579546
165	0x3cf33b98	0.029691502
166	0x3dfe01ca	0.12402685
167	0xbd7618ff	-0.060082432
168	0xbdf00c14	-0.11721054
169	0x3d16a7e4	0.036781207
170	0x3d96ff10	0.07372868
171	0xbc9cca90	-0.019139558
172	0xbd9539a2	-0.07286383
173	0xbd7f8a63	-0.062387835
174	0xbd937446	-0.07199912
175	0x3df2d4cb	0.11856993
176	0x3d406420	0.046970487
177	0xbdced620	-0.10099435
178	0xbd279834	-0.040916637
179	0x3bb0f354	0.0054001007
180	0xbdc75dbb	-0.097346745
181	0x3d7b3749	0.06133202
182	0x3c536c0e	0.01290418
183	0x3d9ede22	0.07757212
184	0x3d0930eb	0.033493917
185	0xbcfd50d4	-0.03092233
186	0x3d0c546c	0.0342602
187	0x3e0c1a10	0.13681817
188	0xbdcf027e	-0.10107897
189	0x3d8f787f	0.07005405
190	0xbd8fe221	-0.070255525
191	0xbc8cfa6f	-0.01720926
192	0xbbeb63d8	-0.007183533
193	0x3d409eca	0.047026433
194	0x3d670e10	0.056409895
195	0xbd242b63	-0.04008044
196	0xbd820a73	-0.06349649
197	0x3cbfc263	0.02340812
198	0x3e3457f4	0.17611676
199	0xbdebd826	-0.115158364
200	0x3db441b9	0.08801598
201	0xbd2c08f4	-0.042000726
202	0xbdee3a46	-0.116322085
203	0xbdc47725	-0.095930375
204	0x3d29c9eb	0.04145233
205	0x3d7d1c1a	0.061794378
206	0xbd0f4d3b	-0.034985762
207	0xbc8f81ae	-0.01751789
208	0xbe2815c2	-0.1641455
209	0x3d8dbdb7	0.06920951
210	0x3dc24288	0.09485346
211	0x3d1c0efb	0.038100224
212	0xbdca63b9	-0.09882302
213	0x3c879614	0.016551055
214	0x3e596b08	0.21232235
215	0x3dbe92be	0.093053326
216	0x3db698bc	0.089158505
217	0x3e042667	0.12905274
218	0xbe029b03	-0.12754445
219	0xbd88c8c8	-0.06678921
220	0xbdb29f76	-0.08721821
221	0xbd9daf78	-0.07699484
222	0x3e3a5240	0.18195438
223	0x3de9dceb	0.1141909
224	0x3e2286b8	0.15871704
225	0xbdc7e540	-0.09760523
226	0xbdca9e25	-0.09893445
227	0x3d5ccff4	0.053909257
228	0xbe0d6ddb	-0.13811438
229	0x3d2b0301	0.04175091
230	0xbd67f3e8	-0.05662909
231	0xbd9093dd	-0.07059453
232	0xbd1e3a88	-0.03863004
233	0x3dc24a48	0.09486824
234	0x3c47b980	0.012190223
235	0xbb6003c0	-0.0034181923
236	0xbd85e200	-0.06537247
237	0xb9409060	-0.00018364331
238	0x3bcd2b8a	0.006261294
239	0x3d0331ba	0.032029845
240	0x3cbd2357	0.02308814
241	0x3b8fdc78	0.0043902956
242	0xbe31455e	-0.17311618
243	0x3c8b8a24	0.017033644
244	0x3df49ff6	0.11944573
245	0x3dca82f1	0.09888256
246	0xbd67aded	-0.056562353
247	0x3e597f95	0.21240075
248	0xbdd03572	-0.10166444
249	0x3de607e0	0.11231971
250	0x3d5391e4	0.051652804
251	0xbd8e46bc	-0.06947085
252	0xbd1d2827	-0.03836837
253	0x3da2ff18	0.079588115
254	0x3b5613a4	0.0032665515
255	0xbe4d4dac	-0.2004916

bn1.running_var f4 [512]
0	0x3f9f557d	1.2447964
1	0x3f9a3d4c	1.2049956
2	0x3f85a401	1.0440675
3	0x3fa59435	1.2935854
4	0x3f74eab1	0.9567061
5	0x3f72ac9e	0.9479464
6	0x3f90bead	1.130819
7	0x3fb1cd6b	1.3890814
8	0x3f6134d7	0.8797125
9	0x3fa36c57	1.2767438
10	0x3fa4b3d7	1.2867383
11	0x3f80dd20	1.0067482
12	0x3f9e8404	1.2384038
13	0x4001f9a9	2.030863
14	0x3f854ba3	1.0413707
15	0x3faa7c36	1.3319156
16	0x3f87fb82	1.0623629
17	0x3f72d423	0.94854945
18	0x3fb3f296	1.4058406
19	0x4005d82a	2.0913186
20	0x3f93259e	1.1495855
21	0x3fcb75e0	1.5895348
22	0x3f8a1c92	1.0789969
23	0x3fa15e12	1.2606833
24	0x3fa1a572	1.2628615
25	0x3fb241ec	1.3926368
26	0x3f939b96	1.1531856
27	0x3fb0cb4a	1.3812039
28	0x3fb86959	1.440715
29	0x3fa73c69	1.3065311
30	0x3f6b758c	0.9197624
31	0x3fb27f69	1.3945132
32	0x3f4ba3f5	0.79547054
33	0x3fae93a7	1.363881
34	0x3f99f05b	1.2026476
35	0x3fbdbe45	1.4823691
36	0x3f48e1fc	0.78469825
37	0x3f98de2d	1.1942803
38	0x3f6945af	0.91121954
39	0x3f888cc8	1.0667963
40	0x3fa1a676	1.2628925
41	0x3f8d2c16	1.1029079
42	0x3f855588	1.0416727
43	0x3f804240	1.0020218
44	0x3fc7b534	1.5602174
45	0x3fb2e6f7	1.3976735
46	0x3f5d86eb	0.86533993
47	0x3fd17233	1.6362976
48	0x3f61b5da	0.8816811
49	0x3ff1c7db	1.8889116
50	0x3f7800e7	0.96876377
51	0x3f7be28b	0.9839255
52	0x3fa8d7e4	1.3190885
53	0x3fc188b7	1.5119847
54	0x3f78fa10	0.97256565
55	0x3f8c0f9a	1.0942261
56	0x3f8c9003	1.0981449
57	0x3f843049	1.0327235
58	0x3f836738	1.0265875
59	0x3faa433a	1.3301766
60	0x3f95ebd4	1.1712594
61	0x3f7fac5b	0.9987237
62	0x3f8b5e6f	1.0888194
63	0x3f84069e	1.031452
64	0x3f65ec62	0.89813817
65	0x3f81b6da	1.0133927
66	0x3f84dd9c	1.038013
67	0x3fbc9bf7	1.4735097
68	0x3fa67f25	1.3007551
69	0x3f9ce7b7	1.2258214
70	0x3f880424	1.0626264
71	0x3f5e4841	0.86829
72	0x3f9e0a89	1.2346965
73	0x3f791b39	0.97307163
74	0x3f9562d3	1.1670784
75	0x3f9d863b	1.2306589
76	0x3f8e9d6e	1.1141794
77	0x3fc02523	1.5011333
78	0x3fa522d0	1.2901249
79	0x3fd4efd0	1.6635685
80	0x40028556	2.0393882
81	0x3fcaf792	1.5856802
82	0x3f991a05	1.1961066
83	0x3f89701c	1.0737338
84	0x3fb1d5f4	1.3893418
85	0x3f9d9a87	1.2312783
86	0x3f6c49c6	0.9230007
87	0x3f50bbc7	0.81536525
88	0x3f845713	1.0339073
89	0x3f6909c9	0.91030556
90	0x3f4b3eda	0.7939278
91	0x3fb98c70	1.4495983
92	0x3f7e3b9a	0.99309695
93	0x3fa58699	1.2931701
94	0x3f794b80	0.9738083
95	0x3f94fcda	1.1639664
96	0x3f73b92d	0.9520443
97	0x3f5049ae	0.81362426
98	0x3f8f407b	1.1191553
99	0x3facfc70	1.3514538
100	0x3f7ba758	0.9830222
101	0x3f8b1654	1.0866189
102	0x3f98bb93	1.1932243
103	0x3f97f918	1.1872892
104	0x3f977055	1.1831156
105	0x3fb9aaa7	1.4505204
106	0x3fbd57a2	1.4792368
107	0x3f7d00c1	0.98829275
108	0x3f9665f7	1.1749867
109	0x3f8a9b1f	1.0828589
110	0x3f9f916e	1.2466257
111	0x3f835537	1.026038
112	0x3fa6fed4	1.3046517
113	0x3f7a0f46	0.97679555
114	0x3f9410aa	1.1567585
115	0x3f4ce5de	0.8003825
116	0x3f7a538c	0.9778373
117	0x3f948652	1.1603491
118	0x3f93cd63	1.1547054
119	0x3f972906	1.1809394
120	0x3fcce1de	1.6006429
121	0x3fb15df2	1.3856795
122	0x3f97df5e	1.1865041
123	0x3f903e4b	1.126901
124	0x3fa77af9	1.3084403
125	0x3fb803bc	1.437614
126	0x3fa63a5f	1.2986563
127	0x3fa69440	1.3013992
128	0x3f997a91	1.1990529
129	0x3faf415e	1.3691823
130	0x3fda128b	1.7036909
131	0x3fb71235	1.4302431
132	0x3f682273	0.90677565
133	0x3f6eec74	0.9332955
134	0x3fb5c53d	1.4200817
135	0x3f83470e	1.0256059
136	0x3f8e3ec3	1.1112903
137	0x3f8266e9	1.0187656
138	0x3fde96c3	1.7389759
139	0x3f7b1b28	0.9808831
140	0x3f994e45	1.1977011
141	0x3fa5e876	1.2961566
142	0x3f94bf75	1.1620928
143	0x3f862535	1.0480105
144	0x3fb108f9	1.3830863
145	0x3fa3971f	1.2780493
146	0x3f9029c9	1.1262752
147	0x3fdc1270	1.7193127
148	0x3f839edd	1.0282856
149	0x3f8a41ed	1.0801369
150	0x3f82eb4a	1.0228055
151	0x3fca9ed6	1.5829723
152	0x3f98fdc5	1.1952444
153	0x3f596d09	0.84932
154	0x3f91b286	1.1382606
155	0x3f9dbc1e	1.2323034
156	0x3f53e7d1	0.827756
157	0x3f766b18	0.9625716
158	0x3f83f9fe	1.0310667
159	0x3f969e83	1.1767124
160	0x3f701c98	0.9379363
161	0x3f87d21d	1.0610996
162	0x3f966c47	1.1751794
163	0x3f89bf8c	1.076158
164	0x3f841582	1.0319064
165	0x3f66eb81	0.902031
166	0x3f730cb0	0.94941235
167	0x3f695133	0.91139525
168	0x3f79bcdc	0.975538
169	0x3f81d680	1.0143585
170	0x3fb6232a	1.4229481
171	0x3f863921	1.0486184
172	0x3f93a3c8	1.1534357
173	0x3f56f0ec	0.8396137
174	0x3fa8f5c4	1.3200002
175	0x3fbe868d	1.4884812
176	0x3f6f8608	0.9356389
177	0x3f9d35a9	1.2282001
178	0x3fb94726	1.4474838
179	0x3f8e92d2	1.1138556
180	0x3f9089c1	1.1292039
181	0x3fbf0b5a	1.4925339
182	0x3f992efb	1.1967462
183	0x3f83c68d	1.0294968
184	0x3f5d5676	0.86460054
185	0x3f9713a3	1.1802868
186	0x3f834c15	1.0257593
187	0x3f9c10ec	1.2192664
188	0x3f72a2ba	0.9477955
189	0x3f8f3581	1.1188203
190	0x3f95cdfe	1.1703489
191	0x3f89d540	1.0768204
192	0x3f7d2568	0.988852
193	0x3fb4edda	1.4135087
194	0x3fb7255f	1.430828
195	0x3f95d0cb	1.1704344
196	0x3fba8d02	1.4574282
197	0x3fa9fe86	1.3280799
198	0x3f9d8fa2	1.2309458
199	0x3fa72b47	1.3060082
200	0x3f9882f2	1.1914961
201	0x3f632640	0.8873024
202	0x3f58d97f	0.8470687
203	0x3faf672e	1.3703363
204	0x3f89a3c2	1.07531
205	0x3f6ac28a	0.91703093
206	0x3f8a4288	1.0801554
207	0x3f8d9516	1.1061122
208	0x3f946434	1.159308
209	0x3f7778b7	0.9666857
210	0x3f8817f3	1.0632309
211	0x3f793511	0.973466
212	0x3f915edd	1.1357075
213	0x3f61388c	0.8797691
214	0x3f55efa7	0.83568805
215	0x3f5d2cd7	0.86396545
216	0x3f9f8958	1.2463789
217	0x3f90ed91	1.13225
218	0x3f952080	1.1650543
219	0x3f61d100	0.88209534
220	0x3f60c2b2	0.8779708
221	0x3fb306b5	1.3986422
222	0x3f8e8d3d	1.1136853
223	0x3f86521d	1.0493809
224	0x3fa80c42	1.3128741
225	0x3f864c9f	1.0492133
226	0x3f81b24b	1.0132536
227	0x3f8d2148	1.1025782
228	0x3f7c95d3	0.98666114
229	0x3f8cfe07	1.1015023
230	0x3f8395a8	1.0280046
231	0x3fd2288b	1.6418623
232	0x3fe02c06	1.7513435
233	0x3f6daf21	0.9284535
234	0x3f86e1c7	1.0537652
235	0x3f505ccc	0.81391597
236	0x3f93eba0	1.1556282
237	0x3f992e52	1.1967261
238	0x3f4b824a	0.7949568
239	0x3f9da652	1.2316382
240	0x3f97ea8a	1.1868451
241	0x3f98b8a7	1.1931351
242	0x3fa78aaa	1.3089192
243	0x3f90facc	1.1326537
244	0x3f7ad2e7	0.9797806
245	0x3f68a739	0.9088016
246	0x3f9f2b16	1.2435024
247	0x3fbeab13	1.4895958
248	0x3f8b153b	1.0865854
249	0x3fa00619	1.2501861
250	0x3f912f55	1.134257
251	0x3f7deeb5	0.99192363
252	0x3f9d9383	1.2310642
253	0x3f839d06	1.0282295
254	0x3f89a28a	1.0752728
255	0x3f7ae667	0.98007816

fc2.weight f4 [10, 512]
0	0x3de43079	0.11142058
1	0xbacad40a	-0.001547457
2	0xbde40340	-0.111334324
3	0xbe0b010b	-0.13574617
4	0xbe37fbe9	-0.1796719
5	0x3e8e11d5	0.2774798
6	0x3e8ce574	0.2751881
7	0xbd634389	-0.05548433
8	0xbd48a6e9	-0.048987303
9	0xbdc52eb7	-0.09628051
10	0xbe0d0d93	-0.1377471
11	0x3e03c7b0	0.12869143
12	0x3e4af928	0.19821608
13	0xbb1f6dac	-0.0024326844
14	0xbe60d56b	-0.21956412
15	0xbe50339d	-0.20332189
16	0xbebff8f4	-0.37494624
17	0x3cfa8e5c	0.03058546
18	0x3e5995b9	0.21248521
19	0x3e124def	0.14287542
20	0x3b61084e	0.0034337225
21	0xbd95df33	-0.073179625
22	0x3e081dc7	0.13292609
23	0xbdd8481a	-0.10560627
24	0x3d3a7f56	0.045531593
25	0xbdc54cd5	-0.09633795
26	0x3e9051d2	0.28187424
27	0xbe2cd689	-0.16878714
28	0x3d8760c8	0.066102564
29	0x3dc4dd52	0.09612526
30	0x3c53296d	0.012888295
31	0xbe176c70	-0.1478746
32	0xbdf9f64f	-0.12205183
33	0xbe49ac88	-0.19694722
34	0xbd4392a7	-0.04774728
35	0x3d7c030b	0.06152634
36	0xbe9a0ee2	-0.3008948
37	0x3d19506d	0.037430216
38	0x3c5538ed	0.01301406
39	0xbe3512a6	-0.17682895
40	0x3d3ff1fe	0.04686164
41	0xbe9d6e8d	-0.30748406
42	0xbe750392	-0.23927143
43	0xbe438f4b	-0.1909763
44	0xbd0fbd8a	-0.035092868
45	0x3d985349	0.074377604
46	0xbd8e4d82	-0.06948377
47	0xbdc512a3	-0.09622695
48	0x3e1ca519	0.15297355
49	0x3e3ed3d3	0.18635492
50	0x3d2f3c21	0.042781953
51	0xbe88a060	-0.26684856
52	0xbdca637e	-0.09882258
53	0xbde8cee0	-0.11367583
54	0x3d73785a	0.059440948
55	0x3caa29e9	0.020771937
56	0x3db2ce60	0.08730769
57	0xbc58c8c1	-0.013231457
58	0x3ce0d2d5	0.027444283
59	0x3b9d1789	0.0047940654
60	0x3e0f8c19	0.14018287
61	0xbd4cfc78	-0.05004546
62	0x3e996b7c	0.29964817
63	0xbbca93d1	-0.006182172
64	0x3e70c2e1	0.2351184
65	0xbe0fa26a	-0.140268
66	0x3e87996f	0.26484248
67	0xbdc46ed9	-0.09591455
68	0x3d84693f	0.064653866
69	0x3d89b9d4	0.06724897
70	0xbe9a84ec	-0.30179536
71	0x3db160da	0.08661051
72	0x3d216df1	0.03941149
73	0x3e4f4778	0.20242107
74	0xbe16d0d4	-0.14728099
75	0x3d0d09d2	0.034433194
76	0x3dc3249d	0.09528468
77	0x3dc43407	0.09580236
78	0xbe24ab52	-0.16080979
79	0x3e025ffa	0.12731925
80	0x3c0483fd	0.008088109
81	0x3d9a7468	0.07541734
82	0xbdcc4bcd	-0.09975395
83	0xbe9928b2	-0.2991386
84	0xbd658a1e	-0.056039922
85	0xbd0ed4b4	-0.03487082
86	0x3e1813b1	0.14851262
87	0x3e11b9e0	0.14231062
88	0xbd1b43a4	-0.037906304
89	0x3e400bfd	0.18754573
90	0xbc427de0	-0.011870831
91	0xbd300903	-0.042977344
92	0x3e425406	0.18977365
93	0x3cf9df89	0.030502098
94	0x3d4a4df9	0.049390767
95	0xbdaf0137	-0.085451536
96	0x3cd430ef	0.02590224
97	0xbc320bb3	-0.010867047
98	0xbe4eec54	-0.2020734
99	0xbb60bab3	-0.003429097
100	0x3e376e23	0.17913108
101	0xbda2aa13	-0.07942595
102	0xbbad4bf7	-0.0052885967
103	0xbd95818e	-0.07300101
104	0xbcc19f6a	-0.023635585
105	0x3e20bd70	0.15697265
106	0x3da24a91	0.07924379
107	0xbd93d108	-0.07217604
108	0xbe6f0d45	-0.23344906
109	0x3dabac7a	0.08382507
110	0xbdbd039f	-0.09229206
111	0x3e24cadb	0.16093008
112	0xbdb0bc40	-0.08629656
113	0xbccc1fbd	-0.024917478
114	0x3aba2ed8	0.0014204634
115	0xbc2cacda	-0.010539258
116	0x3d16ed21	0.036847237
117	0xbdc02a0b	-0.09383019
118	0xbdfe90a6	-0.12429933
119	0xbe4a807c	-0.19775575
120	0x3db30004	0.08740237
121	0x3e23fba7	0.16013967
122	0x3e219aae	0.15781662
123	0x3e17d276	0.14826378
124	0xbebcc53e	-0.36869234
125	0xbddbf5bb	-0.10740229
126	0x3dd75a4b	0.10515269
127	0xbddaa664	-0.10676268
128	0xbd437d36	-0.047726832
129	0xbd5638e3	-0.052300345
130	0x3e350260	0.17676687
131	0xbdb8af95	-0.090178646
132	0x3e911ff4	0.2834469
133	0x3e032565	0.12807234
134	0x3e0c66ec	0.13711137
135	0x3e432854	0.19058353
136	0x3e099b98	0.1343826
137	0xbd619178	-0.05507037
138	0x3dfb1292	0.122594014
139	0x3cec0416	0.028810542
140	0xbd5df24c	-0.05418615
141	0xbe35252d	-0.17689963
142	0xbd6bed7f	-0.05759954
143	0xbe050ed2	-0.12993935
144	0x3ccd4b61	0.025060358
145	0x3d97a1b3	0.074038886
146	0x3d5cb336	0.053881846
147	0xbe284872	-0.16433886
148	0x3e54bbd8	0.20774782
149	0x3ae82411	0.0017710944
150	0xbdb5c102	-0.08874704
151	0xbcb1a8cd	-0.021686936
152	0x3d72b40d	0.05925374
153	0xbeb01d19	-0.343972
154	0xbd89fc03	-0.067375205
155	0x3d81d992	0.06340326
156	0xbe215cca	-0.15758052
157	0x3de099d6	0.10966842
158	0x3e13ee32	0.14446333
159	0xbe1ec8e8	-0.15506327
160	0xbbaaab82	-0.0052084336
161	0xbd953ff2	-0.07287587
162	0x3d894d7f	0.06704234
163	0xbdbad2a3	-0.09122207
164	0xbc527e44	-0.012847487
165	0x3cb250ca	0.021767039
166	0x3e1bac5c	0.15202469
167	0xbd441f2d	-0.047881294
168	0xbe07077c	-0.13186449
169	0xbe5ebc55	-0.2175153
170	0x3cc4dc50	0.024030834
171	0x3e250c92	0.16118076
172	0xbdf97b1e	-0.12181686
173	0x3e1cbd5f	0.15306614
174	0xbe1d7c36	-0.15379414
175	0xbd68362a	-0.05669228
176	0x3e07793c	0.13229841
177	0xbe5a7ef6	-0.21337494
178	0xbdeaa01e	-0.11456321
179	0xbd9b584c	-0.07585201
180	0xbe4759ba	-0.19467822
181	0x3ddbef60	0.107390165
182	0x3dc81a68	0.097706616
183	0xbdbe63b5	-0.09296361
184	0x3d5b6802	0.053565986
185	0xbdc275bb	-0.094951116
186	0xbe5df799	-0.21676482
187	0xbe5388c1	-0.20657636
188	0x3e2eecf9	0.17082585
189	0x3b254ba5	0.002522209
190	0xbe1dbada	-0.1540331
191	0x3d007701	0.03136349
192	0x3df42831	0.119217284
193	0xbe6c30e0	-0.2306552
194	0x3cc1a457	0.023637934
195	0x3d50aa60	0.050943732
196	0x3de0e217	0.10980623
197	0x3d8f8551	0.0700785
198	0x3cb59ff8	0.022171006
199	0x3e91f932	0.28510433
200	0x3e23ea18	0.16007268
201	0xbb9e5fb8	-0.004833188
202	0xbe8b20a3	-0.27173337
203	0x3d755a2f	0.05990046
204	0xbd3e8626	-0.046514653
205	0xbc5e12a9	-0.013554254
206	0xbd51269b	-0.051062208
207	0x3db8d047	0.09024101
208	0xbcc953c4	-0.024576075
209	0xbd571069	-0.052505884
210	0x3d2313e8	0.039813906
211	0x3c9d12fd	0.019174093
212	0xbe1a22c0	-0.15052319
213	0xbbe6f4f9	-0.007048246
214	0xbe32b6ff	-0.1745262
215	0x3de56fbe	0.11202954
216	0xbe871a27	-0.2638714
217	0x3e952170	0.29127073
218	0x3c7ccb99	0.015429401
219	0xbe4fccd5	-0.20292981
220	0x3d76d95c	0.060265884
221	0x3e21f49a	0.15815964
222	0x3c7f76c6	0.015592283
223	0x3de6abd6	0.11263244
224	0xbd2122bb	-0.039339762
225	0x3e11b111	0.14227702
226	0x3e3f9e49	0.18712725
227	0xbcbda1b4	-0.023148395
228	0xbd4334df	-0.047657844
229	0xbe971bbb	-0.29513344
230	0xbe18477f	-0.14871024
231	0x3cf5c04c	0.02999892
232	0x3df50487	0.11963754
233	0x3d8f2ff7	0.069915704
234	0x3d7bb3c7	0.061450746
235	0x3dcfea19	0.101520725
236	0xbe12c0e6	-0.14331397
237	0xbdc2a92d	-0.09504924
238	0x3da49f6c	0.0803822
239	0xbba28435	-0.004959608
240	0xbb431575	-0.0029767428
241	0x3daf418f	0.08557426
242	0x3c08242d	0.008309406
243	0x3dc7a859	0.09748907
244	0xbcbe6058	-0.0232393
245	0xbcd5f0d3	-0.02611581
246	0x3e261d8f	0.16222213
247	0xbd2a8e0a	-0.041639365
248	0xbe856faa	-0.26061755
249	0x3e8d0056	0.2753932
250	0xbd89c426	-0.067268655
251	0xbd7f2b07	-0.062296893
252	0x3d9a670c	0.07539186
253	0x3e2aa990	0.16666245
254	0x3df3d84f	0.11906492
255	0x3de8d12b	0.113680206

fc2.bias f4 [10]
0	0x3d8d0be3	0.06887033
1	0xbc372b7e	-0.011179803
2	0xbd6e4b74	-0.058177426
3	0x3d9ca0dc	0.07647869
4	0x3c9f7a67	0.019467546
5	0xbdca0075	-0.098633684
6	0xbd0a2015	-0.033722002
7	0x3da22500	0.079172134
8	0x3c9264dc	0.01787036
9	0xbc1c36d5	-0.009534557
