models/mlp_small_hidden.pth (torch, 334235 bytes, 10 tensors)

fc1.weight f4 [256, 50]
00000000: b517 103d 0d20 b4bd 23b2 8abd b21a c1bd
00000010: dd2e f53d ac68 10be 0629 543c d936 343d
00000020: 357e fa3d f0e8 10bc 8e97 aa3d c76d 39be
00000030: c90f c03d 4b18 513c e649 0a3e a424 8ebd
00000040: 1f8e 563e b340 433d b17a 04be 7c72 023d
00000050: 07cb a9bd 2710 fc3d 4add 513d f4f6 113e
00000060: f8af d0bb d796 27bc eed2 47bc abe0 da3d
00000070: 7c03 933b 9d75 9c3b a396 ac3d 33a4 80bd
00000080: 8288 de3d c442 2d3e a814 b6bc b49f 323d
00000090: f0c1 7e3d 63f8 443c 879c 073d 22ac 8f3d
000000a0: d1f0 05be 7bb2 42bd 9544 b5bc 2ecd 95bd
000000b0: c862 7e3c 3580 8bbd 569d d7bd 58b2 35bd
000000c0: d12c bc3d 661b c9bd 0f1a 9abd 750a 4b3d
000000d0: 1fba 783d 1c55 49be 8b9f ee3d 8fc5 0b3d
000000e0: 7587 e3bd 4747 9f3d a8e3 8abd 87dc ce3d
000000f0: 6e78 97bc d276 793d 775e 7cbd 6fc0 133e
00000100: ed0c 543d 0bfa 05bd cbf6 db3d da23 2e3e
00000110: d67a 893e 4452 1c3e 66fc e0bd 6b89 503c
00000120: d2b9 b53b f83f 21bd 3d34 edbd e5de c63d
00000130: 033d fa3d 2e78 8e3d 94a8 b1bb 8b3b fbbd
00000140: 1cd4 e53c 29b4 49bd 5e26 d43d 33cf 9e3d
00000150: 70b6 1abe 0c9d a83d c22d c3bd fc00 e23c
00000160: 255d 123e e48a c53d d181 13be 4846 2dbe
00000170: 2175 dfbd 573a b33d e639 b23d a416 88bd
00000180: a9cd b7bd a4ca 2b3e e13f 453b f886 d33c
00000190: ab59 903d 2b05 bcbd ef48 353d fe4b c5bd
000001a0: 0c3a c73d 36c5 13be f1eb fdbc ebc8 f83d
000001b0: e8be 81bd 627e 6e3d 3755 273d 24cc 903b
000001c0: 46df eabc 5f8b e73d bf37 cebb af3e 23be
000001d0: 2715 4ebe f0c8 c63d 664c cb3d 5ff7 6abd
000001e0: e1fa c1bd be89 d63d 2cdd 74bd 06bf 2ebe
000001f0: 4cf4 023e 5d31 bfbd 15da aebd 1e49 b33d
00000200: ac97 b4bc 1065 893d e77b 7cbc a1e3 c1bd
00000210: 9b6a 83be c80c 523d 4c1b 0ebb 8fcc 2c3c
00000220: 2942 d2bd 3593 28be 8873 913d 4784 23be
00000230: fa9d 4abc d7c3 f53c 813b 37be c5bd 073d
00000240: 58e1 493c 5835 9fbd 2b55 adbd 6344 18bd
00000250: 6c7b de3c bf69 f03c 293e a1bb ee2f 4ebc
00000260: 16c5 28bd 1ea1 a73d 9061 2dbe 6928 073e
00000270: 6bc8 bdbd c61d 513c bcb9 16be 95d5 263e
00000280: 34ce a3bd 48f5 d53d 43bd cbbd 94a9 e53d
00000290: 7bd7 913d 751a 353e 6877 dabd 53f2 a3bd
000002a0: b98a cc3d 7fbb 123d a12b 3fbe a09a 573d
000002b0: c7aa a23d ffed 683c ca21 873d 6fae 623d
000002c0: dd0e b23d 004c 073e 2686 353e a318 10bd
000002d0: d4f8 813d d47a fdbd 4d8c 9b3c 364f 9b3d
000002e0: b7d3 663d 49c7 b7bc 7684 063e 305f 213e
000002f0: cb27 dfbc b3b9 a1bd cd71 1d3d 89bf 113e
00000300: 93e8 21be ce9d a53d ca5b 13bd dc6d b03d
00000310: debb d8bd 1de3 85bd b253 193e 3d16 2c3d
00000320: 0ee2 8dbd e1f3 cabd 0d1e 733d daca fbbc
00000330: 9332 e73a 0f2a 513d 293d 10bc 34cd 893d
00000340: 4200 cdbd bb8f 4ebe 29f9 6fbd c877 1ebe
00000350: 4870 af3c 4c5c 7dbd 9d0c d2bd c54a 913d
00000360: 1b8e 853d 5098 c1bd 8bcc 663b 6478 c03d
00000370: 8447 3c3c 2854 8b3d ee96 90bd b253 b13d
00000380: a426 a53d 303b 0abe 2b75 7b3c 7c7f b03b
00000390: bff0 1a3d d72e 1fba 6a7b 4cbc ab54 cfbd
000003a0: e4fe 9fbd df1f 20bc 71d4 2d3e 540f 843d
000003b0: 4c31 9d3d c8a4 febd d520 35be a24e 143d
000003c0: 8920 f4bd c110 a83d 7984 66bd 285f cf3d
000003d0: fa58 b23d 9a58 fb3d 13b2 113d 52a7 8dbd
000003e0: 3d1f 573d b1e4 7a3d 1072 003e ecd7 853d
000003f0: c69c 053e eaba 903d 8b9d 0cbe cdfd 0bbe
0.03517886 -0.08795176 -0.06772258 -0.0942892 0.11971829 -0.14102429 0.012949234 0.04399762
0.12231103 -0.008844599 0.08329688 -0.18108283 0.09378011 0.01276214 0.13504753 -0.069405824
0.20952652 0.047669124 -0.12937428 0.031847462 -0.082906775 0.12307768 0.05123643 0.14254361
-0.0063686334 -0.010228834 -0.012196286 0.10687383 0.0044864994 0.004774763 0.08427169 -0.062813185
0.108658805 0.1692 -0.022226647 0.043609336 0.062196672 0.012022111 0.03310826 0.070152536
-0.13080145 -0.047533493 -0.022127429 -0.073145255 0.015526481 -0.06811563 -0.10528056 -0.044359535
0.091882356 -0.09819679 -0.075245015 0.04957052 0.060724374 -0.19661373 0.11651524 0.034123953
-0.11109821 0.07777267 -0.06781703 0.10100656 -0.018490043 0.06090433 -0.061613526 0.14428876
0.05177014 -0.032709163 0.107404314 0.17005864 0.2685153 0.15265757 -0.10985641 0.0127280755
0.005545833 -0.039367646 -0.11582229 0.097104825 0.12218668 0.06956516 -0.0054217074 -0.12267216
0.028055243 -0.04924408 0.103588805 0.07754364 -0.15108657 0.08233079 -0.09530212 0.02758836
0.14293344 0.09645632 -0.1440499 -0.16921341 -0.109110124 0.08751362 0.087024495 -0.06644943
-0.089747734 0.1677652 0.003009789 0.025821194 0.07048353 -0.09180673 0.044259008 -0.09633635
0.097278684 -0.14430699 -0.030996295 0.12147697 -0.063352406 0.058225997 0.04085275 0.0044188667
-0.028670918 0.1130588 -0.0062932665 -0.1594188 -0.20125256 0.097062945 0.09926681 -0.057364818
-0.094716795 0.10475491 -0.05978124 -0.17065057 0.12788504 -0.09335587 -0.085376896 0.0875418
-0.022044979 0.06708729 -0.0154104 -0.09467245 -0.2566727 0.05128172 -0.002168375 0.010546817
-0.10266525 -0.16462405 0.07102114 -0.15968429 -0.012366766 0.03000061 -0.17893793 0.033139963
0.012321793 -0.077738464 -0.0846351 -0.037174594 0.027158462 0.029347299 -0.00492074 -0.0125846695
-0.04120358 0.081850275 -0.16931748 0.13199009 -0.09266742 0.012763446 -0.1471929 0.16292413
-0.079983145 0.10447174 -0.09948208 0.11213985 0.07121178 0.17685874 -0.10667306 -0.08005204
0.09987397 0.03582334 -0.18668987 0.052637696 0.079427294 0.014216899 0.065982416 0.055342134
0.08694241 0.13212585 0.17726955 -0.035179745 0.06346288 -0.12376943 0.018987799 0.07583468
0.05635425 -0.022433894 0.13136467 0.15758967 -0.027240654 -0.078967474 0.038438607 0.14233221
-0.15811376 0.080867395 -0.03597621 0.08614704 -0.10582708 -0.06537459 0.14973333 0.042013396
-0.06927882 -0.099097975 0.05935483 -0.030736376 0.0017638974 0.0510655 -0.008803644 0.067285925
-0.10009815 -0.20172016 -0.058587227 -0.1547538 0.021415845 -0.0618556 -0.10256312 0.07094339
0.06521245 -0.094528794 0.0035217132 0.09397963 0.01149166 0.06803161 -0.070600376 0.08658542
0.08064011 -0.1349914 0.015347759 0.005386291 0.03782725 -0.00060723483 -0.012480596 -0.10123571
-0.078122884 -0.009773224 0.16975571 0.06448236 0.07675418 -0.12433773 -0.17688306 0.036207803
-0.11920268 0.082063206 -0.05627868 0.101255715 0.08708377 0.12272759 0.035570215 -0.069166794
0.052520026 0.061253253 0.12543511 0.065353245 0.13048086 0.07066901 -0.13731973 -0.13671036

fc1.bias f4 [256]
00000000: 7f9a ba3d bb75 02be 634b 7abd 458a 89bd
00000010: 6039 ba3d fc1f e0bc cbed 1ebd 168f a3bc
00000020: 7076 dbbb 6855 99bd 639b c33c 3715 66bc
00000030: c089 fbbd 77a8 523d d341 58bd 63a1 403c
00000040: fb60 e6bc d82f c73d a6e6 03be 6108 283c
00000050: 34d6 81bd 1ceb 96bd 7760 8a3c a9c5 183d
00000060: d627 1e3d 6778 e53d 1148 133d 09b1 e03d
00000070: 2313 403c 2e7a 09be 2520 943d 648b c7bd
00000080: 964d d6bd 042a 18be 1cf2 083d cf3d a13d
00000090: ee10 18be 8c1d 5d3d 4099 563c 7a77 4abd
000000a0: 4596 6fbd 4716 c7bd 7108 7cbc d000 c7bc
000000b0: d62a 8a3d f5be 00be ab8a 24be fb13 c2bd
000000c0: 1a48 8a3b f04a 963d 8778 e13d 690e c7bd
000000d0: 5242 993d e1a6 cebd 9196 5ebd e0ce e7bc
000000e0: 4d21 f43a 9961 9a3c a86e f73b 52ac 14bd
000000f0: a6ae babc 637c b9bd 2908 d6bd d4f9 29be
00000100: e701 bd3d f815 813d 41a3 88b7 69d8 4b3d
00000110: 6574 b3bb 37c7 13be 7fa0 bebd 4bf2 bebd
00000120: 86ac 3bbc 173f 8f3d 46d1 643d 8231 00bd
00000130: e8c6 9b3d e7eb 653d 54cb 31bd 2101 423d
00000140: 1987 10bc 64fd adbd 8498 0abc f4cd a93d
00000150: 5825 3fbe 51ce 4d3d de71 a3bb a443 3fbb
00000160: 9963 c5bd b8fd cebd c3c5 acbd a21d 37bc
00000170: 8c5e 003e 2103 b53b 020d 90bd ddd2 abbd
00000180: 1a88 67bd 2eee 20bc ba47 37bd 1b65 1dbd
00000190: e3c6 a93c 295b e53d cc33 80bc 4284 2bbd
000001a0: c50e 263d 2845 063e 7803 9a3d 67a4 0bbe
000001b0: afff 97bd bbcd 25be 0a26 98bd a373 fcbd
000001c0: 2def f8bd bcc9 bfbd dcc7 363d 66ca b43d
000001d0: 9cdf d23d 2ac7 8dbd 4995 8bbd 3621 a0bd
000001e0: 34ec f5bc 2c9f a03d 5c30 99bd 01c7 b4bb
000001f0: 1fc3 113d cb45 d1bd 28a8 02bd a7ee 29be
00000200: 22cf ab3d aa27 dcbd 1a06 c1bd f210 b4bc
00000210: 64f7 0ebe 1138 10be 7eab e93c 7d48 eebd
00000220: 0faa ba3c af74 013b 7776 5c3d 8aa3 0bbe
00000230: b25c f0bd 6d2f 393d a0e2 fbbd 4c8d b5bd
00000240: e3ad 913d 9f7d 503d 9bfb fabd 3c5d 39be
00000250: 6f47 1cbe 6abd 1f3b ff46 2fbd 54f9 ab3d
00000260: 0430 2bbe b78c 51bd 46ae 90bd 2f3f 3dbe
00000270: 3aa5 313d 057f 80b9 e8c6 fcbd 0653 35bd
00000280: 9223 853d c159 983b df5a 14bd 36b5 0bbe
00000290: ba2c db3d 56b9 9dbd 7ca3 3cbe e18d 0fbe
000002a0: 6ea5 c0bc 3b02 21bd 954d bf3c 7f13 a43b
000002b0: 100a 643d 30d2 b9bd 591c 423d 6b55 11be
000002c0: 80ce dc3d 252e b4bd 2c07 17be 96f5 9bbd
000002d0: 86e8 efbb 442a 42bd 7d46 f3bd 39ad 2abe
000002e0: bc05 b9bd 5d0a 13be 7b5b d0bd c6c8 e53c
000002f0: 7f3a 07bd 378a 25bd cf35 e3bd 8e05 ddbd
00000300: b1da 74bd 20ef 933d 2b3d 0e3d 3c13 4a3d
00000310: ebf6 9e3d 2b2a 743d 6034 16be 9a64 a23d
00000320: 85d5 35bc ced4 1fbe 33d1 b33c aa66 45be
00000330: 4d1a a43d 931e b73d ff3b 3bbe 339a 92ba
00000340: 35e4 ed3b 8c93 403d d315 f33c f33f 7ebd
00000350: a31c 2fbd 237f 4fbc 3f7e 843d e7b9 28be
00000360: 7e2c ddbd 44a8 a83c ebc4 5bbc 5112 1d3d
00000370: 5e84 1dbe 7603 86bd 175e 46bd 51a7 9dbc
00000380: f312 923d 28a9 df3c 9d7c 50be eb6b f7bd
00000390: 9351 20be 6076 27bd c0d6 dcbd e4ab be3d
000003a0: 0f83 20bd abf8 c0bd 9a05 efbc 237c 52bd
000003b0: 16cf 04be 78b9 13be cec4 123a fc7d 42bd
000003c0: b925 19bd 9dce a1bd 53b1 a83d 646c b6bd
000003d0: 40e6 94bb ec6c a0bd 1df4 a43c 3166 ebbd
000003e0: c18d 1abe d0e6 25be c4e1 1cbb d390 52bd
000003f0: c7b8 6e3c ad75 64bc a7f8 15be 4d5d dd3b
0.09111499 -0.12740223 -0.06110705 -0.06715826 0.09092975 -0.027359001 -0.038800996 -0.01996569
-0.0066974685 -0.07486993 0.023877805 -0.014043144 -0.12282133 0.05143019 -0.05279715 0.011757228
-0.028122416 0.09725922 -0.12880954 0.010255904 -0.06339684 -0.07369062 0.016891701 0.03729788
0.03861221 0.112046055 0.0359574 0.10971267 0.011723313 -0.13425514 0.072326936 -0.097433835
-0.10464017 -0.14859778 0.03343402 0.07873117 -0.14850208 0.053983256 0.013098061 -0.049430348
-0.058492918 -0.09721046 -0.015382872 -0.02429238 0.067464516 -0.12572844 -0.16068523 -0.09476467
0.004220021 0.07338512 0.11009317 -0.097195454 0.07483353 -0.100904234 -0.05434281 -0.028296888
0.0018625647 0.018845366 0.007551033 -0.03629715 -0.022788357 -0.09056928 -0.10450775 -0.16599208
0.092288785 0.06303018 -1.6288484e-05 0.04976693 -0.005476522 -0.14431463 -0.09307956 -0.093235575
-0.011454707 0.06994455 0.05586364 -0.031297214 0.07606298 0.056133177 -0.0434068 0.047364358
-0.008821272 -0.08495596 -0.008459214 0.082912356 -0.1866659 0.050245587 -0.0049879393 -0.0029184604
-0.09638137 -0.10106987 -0.084361576 -0.011176499 0.12536067 0.0055240546 -0.07033731 -0.08389828
-0.05652628 -0.009822411 -0.04474614 -0.0384265 0.02072472 0.11199028 -0.015649699 -0.041874178
0.04054143 0.13112319 0.07520193 -0.13636933 -0.07421815 -0.16191761 -0.074291304 -0.123267435
-0.12154994 -0.0936465 0.044624195 0.08827667 0.10296556 -0.06922753 -0.06815583 -0.078188345
-0.030019857 0.078428596 -0.07479927 -0.005516887 0.035586473 -0.1021839 -0.031898648 -0.16594945
0.08389117 -0.10749753 -0.09424992 -0.021980736 -0.1396156 -0.14083888 0.028524157 -0.1163492
0.022786168 0.0019753387 0.053823914 -0.13636604 -0.1173643 0.045211244 -0.12299085 -0.08864841
0.071132444 0.05090105 -0.12255021 -0.18101972 -0.15261625 0.0024374374 -0.042792317 0.08397165
-0.16717535 -0.051159587 -0.0706449 -0.18481134 0.043370463 -0.000245087 -0.12342626 -0.04426863
0.06500925 0.0046493714 -0.036219474 -0.13643345 0.1070189 -0.07701366 -0.1842174 -0.14018966
-0.023516383 -0.039308768 0.023352424 0.005007207 0.05567366 -0.09073293 0.047390316 -0.1419274
0.10781574 -0.08797864 -0.1474883 -0.07615201 -0.00732142 -0.04740359 -0.11878679 -0.16667642
-0.09034297 -0.14359422 -0.101736985 0.028049838 -0.03301477 -0.040415015 -0.110942475 -0.10792075
-0.059778873 0.07223344 0.034726303 0.04933475 0.077619396 0.059610527 -0.14668417 0.079293445
-0.01109827 -0.15608522 0.02195034 -0.19277444 0.08012829 0.089413784 -0.18284605 -0.0011184871
0.0072598704 0.04701571 0.029673493 -0.062072705 -0.04275192 -0.012664589 0.06469392 -0.16477166
-0.10799502 0.020588048 -0.013413648 0.038347546 -0.15382525 -0.06543629 -0.048429575 -0.019244822
0.071325205 0.02730234 -0.20360036 -0.120811306 -0.15656118 -0.040884376 -0.10783148 0.09310129
-0.039187487 -0.0942243 -0.029177476 -0.051387917 -0.12969622 -0.1442622 0.0005598784 -0.04748343
-0.03738949 -0.079007365 0.08236947 -0.089073926 -0.0045440495 -0.07833275 0.020135934 -0.11494101
-0.15093137 -0.16201329 -0.0023938278 -0.051407646 0.014570422 -0.013944072 -0.14645635 0.006755507

fc2.weight f4 [256, 256]
00000000: 531b a33d 8c75 87bd 8573 093d deb0 6dbb
00000010: fd49 f43d a14d a03c 717d 723a a6bd 28bd
00000020: 9860 d6bc 9bec 8e3d 1ead 15be 9b12 5a3d
00000030: 652c 203d dac3 913c 6e87 583c 89d8 2fbc
00000040: 39ea e63c a8e7 8a3d 74db c8bb 536b 913d
00000050: 802a 6e3c ec87 923d 1a69 203d 4440 63bc
00000060: e6cd b2bc 40e0 db3c ca70 a4bd 695a 843d
00000070: 09a9 053d 9504 a43d ddef a8bd bc49 6abc
00000080: 9a8a ab3c 5dde b9bd 90d2 adbd 1d13 22bc
00000090: 152c 7e3d c6fc b9bd 57e9 ec3b 9d59 7fbd
000000a0: 57f3 5b3d 2fb3 33bd 3de8 86bd ce84 77bc
000000b0: 4bfc 42bc bcda 8a3d 3e25 a1bd 88ab 08bc
000000c0: 29a6 b73b 357d 71bd 7a7b 873c 559d 473d
000000d0: 75c3 ceba 3ffc 4cbc 0507 88bd e345 6e3b
000000e0: 01d1 b23c 33b9 2bbc f464 b23d 6d1a 64bd
000000f0: 014b 05bd 20e9 adbd f079 653c 7647 62bd
00000100: 0d6d 2f3c 7798 69bb ff8e a43d 32e6 4d3d
00000110: 0dfd cfbb 8f7f 22bb 424e e83c da0e 4d3d
00000120: 91a9 9c3c 5b27 323d 81fd 34bc a5b7 573b
00000130: a19b b2bd b1c9 0cbd c263 a73b d6f4 103d
00000140: 937c bdbc c8b7 453d e82c 27bb b90b 1b3b
00000150: d720 14bd a6da 843d b74f 3cbd d70d 15bd
00000160: 1d2f bdbc a621 7fbc 83ba 673d 4e82 b13c
00000170: f861 1ebd 9fb3 3e3d 467e 523b ac8e 203c
00000180: 07e7 493d 39eb 7bbd 8846 64bd ea3f 8abc
00000190: c938 5d3c f3ed 8dbd b5bd 823b b8dc 66bc
000001a0: 94e0 3cbd 7038 913c f524 67bd b935 7cbc
000001b0: faaa 493d e397 8c3d 3cdd cfbc 115a c339
000001c0: c0a2 d63d 2bb9 133d 7c1b b6bd fb11 ee3c
000001d0: 59f9 57bd 169d 0ebd add9 783c 263d ba3c
000001e0: 0cd8 ffbc 5ff8 373d 0306 c63c 50e4 d83c
000001f0: eada 42bc ccc4 b63c 2883 c83c baba f9bc
00000200: 3b44 9a3d 697b bdbc f52c 753c 39d1 ba3b
00000210: 3f22 ba3c 83d6 88bc bf9b 87bd bd75 30bd
00000220: dbad 32bc 163c 853d 02ff cabc 2440 d7bc
00000230: a769 e53c 04b2 a9bc 1325 ac3b 353c 83bd
00000240: 4912 6dbd a8b2 d83b 62b3 23bd d824 11bd
00000250: 4874 9b3d 579a 13bd 987b 8ebc b445 1f3c
00000260: c351 bebc 8358 02bd 10f1 8b3d e6ab 17bd
00000270: 46df 01bd 87e0 fb3c f6ff 873c 1ff6 88bb
00000280: e78c d7bd 5aec d73c b288 063d d56f 283d
00000290: 5c2a 9cbd 78b5 a5bc 48b5 59bd e17c e03d
000002a0: 2bfa 4ebd caf7 0cbd 3220 103b 34f2 323c
000002b0: 8e31 863d 8e7f 90bc 9ae6 3ebd b603 34bc
000002c0: a040 433d 21ef 1a3d dd3b 98bd eff5 5c3d
000002d0: 9758 bc3d da11 c03c 9349 20bc 9094 38bc
000002e0: 6ffb 7f3d 5200 e7bc afd9 513b d20f 7e3d
000002f0: b4c6 dcbc 1f32 35bd aadc 0c3d 5884 8abd
00000300: 19e4 943d d2c3 07bd c9f0 3bbc 3fae 87bd
00000310: 6034 54bd 3789 2a3d a90c e8bc de5c b1bd
00000320: d9eb 85bd 96fd 49bb a5ae fcbc 7cf3 85bb
00000330: 0299 8e3d 26f1 0f3b 5c56 c7bb b36e 813d
00000340: c666 6a3d 1251 3e3c 22b9 30bd d275 7d3d
00000350: bc7c 5bbc 0fa9 273c 9ef1 6a3c b5fd bf3c
00000360: c227 32bd 240b 01bc f74c 35bd e284 1d3d
00000370: 8e59 47bd 2703 a9bc 7e6c 823c 35bc 5bbd
00000380: 0321 263d 99f7 a1bc 7c47 8f3c 0c5f 6bbd
00000390: 2a1e c3bc 9ea4 40bc b4f5 c7bd 9340 2cbd
000003a0: bd59 563c 2115 323d 741d 8ebd 3f85 56bd
000003b0: 8350 f6bd 6ce7 a93d 3995 62bd 938f e9bc
000003c0: ea35 21bd 7210 0cbd 1e36 973c e573 64bc
000003d0: 6444 ed3c ecbc 2bbd 15b3 f2bc 48a1 c4bb
000003e0: a84b 2ebd 4ee8 fe3c 63cc dabb fac3 073d
000003f0: d9b9 01b9 6ad2 a13d ed03 9e3c b579 9d3c
0.07964196 -0.06614217 0.033557434 -0.003626875 0.11928175 0.019568266 0.00092502596 -0.041196488
-0.026169106 0.06978723 -0.1461682 0.0532404 0.039104838 0.017793585 0.013215883 -0.010732778
0.028187858 0.06782466 -0.0061296765 0.071005486 0.0145365 0.07154831 0.039162733 -0.013870303
-0.021826696 0.02684033 -0.08029325 0.06462557 0.032631908 0.080086865 -0.08248875 -0.014299806
0.020940114 -0.090756156 -0.08487427 -0.009892252 0.06205376 -0.09081416 0.0072299647 -0.06234132
0.053698864 -0.043872055 -0.06587265 -0.015107347 -0.011900972 0.067800015 -0.078684315 -0.0083416775
0.0056045246 -0.058957297 0.01653837 0.048734028 -0.0015774803 -0.012511312 -0.06641964 0.0036357574
0.021828176 -0.010481167 0.087106615 -0.055689264 -0.032542232 -0.08491731 0.014006123 -0.05524393
0.010707152 -0.0035643855 0.08035087 0.05026836 -0.0063473047 -0.002479527 0.028357629 0.05006299
0.019123824 0.043494564 -0.011046768 0.0032915857 -0.0872109 -0.034372035 0.0051083276 0.035389744
-0.02313069 0.04827097 -0.0025508944 0.002365811 -0.03616413 0.064870164 -0.04597446 -0.03639015
-0.023093754 -0.015571987 0.056574356 0.02166858 -0.03866765 0.04655802 0.0032118722 0.009799641
0.04929259 -0.061503623 -0.055731326 -0.01687618 0.013502308 -0.06930151 0.0039899 -0.014090709
-0.046112612 0.017727107 -0.05643173 -0.015393668 0.04923532 0.068649076 -0.025374047 0.00037260403
0.10480261 0.03606526 -0.08891961 0.029061308 -0.05272803 -0.034817778 0.015188617 0.022734236
-0.031230949 0.0449146 0.024172788 0.026476055 -0.0118930135 0.022310637 0.024476603 -0.030484546
0.07532545 -0.023130136 0.014964332 0.005701211 0.022721408 -0.01670385 -0.06621503 -0.043081034
-0.010905708 0.06505601 -0.0247798 -0.026275702 0.02800448 -0.020714767 0.005253443 -0.06407968
-0.057878766 0.0066130944 -0.039965995 -0.035435528 0.07590538 -0.03603586 -0.017392918 0.009721208
-0.023232346 -0.031822693 0.068330884 -0.03702917 -0.03170707 0.030746711 0.016601544 -0.0041797305
-0.10524922 0.026357818 0.032845207 0.041122276 -0.07625267 -0.020228133 -0.0531514 0.10961319
-0.050531548 -0.034415998 0.0021991846 0.010922004 0.065524206 -0.017638948 -0.046606638 -0.010987213
0.047669053 0.037825707 -0.07433293 0.053945478 0.09196585 0.023446012 -0.009783166 -0.011265889
0.062495645 -0.028198395 0.0032020619 0.062026806 -0.026950218 -0.044237252 0.03439013 -0.06763524
0.07270069 -0.033145733 -0.011470982 -0.06625032 -0.05180776 0.041634765 -0.02832635 -0.08660291
-0.06539125 -0.0030821315 -0.030844996 -0.0040878635 0.06962778 0.0021963804 -0.006083293 0.06319942
0.05722692 0.011616008 -0.043145306 0.06187994 -0.013396438 0.010233178 0.014339833 0.023436407
-0.043494947 -0.007876191 -0.044262853 0.038456805 -0.04866939 -0.020631386 0.015920874 -0.053646285
0.040558826 -0.019771384 0.017490141 -0.05746369 -0.023818094 -0.011757998 -0.09763661 -0.04205377
0.013082919 0.04347718 -0.069392115 -0.052373167 -0.12027075 0.08296093 -0.05531809 -0.028510844
-0.039358057 -0.03419537 0.018458422 -0.013943647 0.028963275 -0.041928217 -0.029626409 -0.0060006715
-0.04255262 0.03111663 -0.006677197 0.033145882 -0.00012371632 0.079014614 0.019288981 0.019223073

fc2.bias f4 [256]
00000000: fcff e83c 8628 693d bef1 1dbd 28d5 3abc
00000010: 4c30 2c3d 6615 7bbd d86b 51bd 84b9 57bd
00000020: b457 a1bc 5818 563d bc6c ceba 44bd 41bd
00000030: 6653 19bd b8d4 17bc 1242 40bb c46c 703d
00000040: 4879 603c 9a5a 113d aaed 2fbd c8c4 2fbc
00000050: a00b c43b 7cae e73c 48d1 20bd f4b8 a73c
00000060: 6216 353d 8c2e ebbc 08de 7fbd a055 23bd
00000070: 986c f6bc 28b0 e83c 84b8 d73c 34ec 463d
00000080: b019 a93b 78c2 4dbd e217 153d 4047 65bb
00000090: f067 fbbb 5acb 09bd e48b 78bd f807 60bc
000000a0: b0fb 59bc 2aff 3f3d b0bf e0bc 9ee2 3dbd
000000b0: f035 7dbc 582c bd3c a0b6 15bc 10ca 133c
000000c0: baff 0d3d 886c 10bc f0ee db3b 50e6 b43c
000000d0: ecc3 09bd c4d6 ee3c 6ca6 3fbd 1245 25bd
000000e0: 4072 1e3d c439 e4bc f45a 023d 885a 6d3b
000000f0: 0484 d9bc b6a4 2abd 9447 223d de30 2b3d
00000100: e437 26bd e03c cebb bc2c 2a3d 78ca 17bd
00000110: 0c16 1dbd 60cb 5e3c 50b5 a03c c41f 7fbd
00000120: 34b0 dcbc da76 7a3a c061 e2bc 682c 65bc
00000130: 000b 73bd 023a 1139 747c 14bd 1874 85bc
00000140: 4a61 47bd 4cfc 78bd fc69 613d 80cd f73a
00000150: 4e6b 45bd a40b d7bc 88e7 15bc b8c8 443c
00000160: 600e c83b e0dd 22bd c822 61bc e813 0f3c
00000170: d040 9c3b baf8 64bd 12d1 11bd c0a1 9dba
00000180: 8c20 433d 8c30 8b3c a8f0 1a3c e4bb 9a3c
00000190: a092 c4bb e0d5 ef3b 5069 4dbc 6abd 203d
000001a0: 7016 04bc c4ae 183d 60b2 6dbc 90d8 973c
000001b0: a8b0 b13c 32fb 1b3d e203 5a3d 5672 313d
000001c0: 2050 aabb 287a 9a3c e071 fcbb c8ef 08bd
000001d0: 5894 0a3d 54bd e7bc 3cb4 6dbd 00ba 1b3d
000001e0: 12b8 17bd de3f 0fbd aed2 0a3d 7cc2 12bd
000001f0: ae69 0c3d 3ce2 583d 905a 5cbd cc5c 39bd
00000200: b49a eebc 28a7 573c 36f8 1d3d 40d1 78bc
00000210: 0e79 6fbd d862 0b3c 28ea 8ebc 9cc8 d23c
00000220: 08ef e43c 7614 72bd b201 72bd 3c89 483d
00000230: 1411 edbc 2839 3fbd a4ae 1dbd 4443 bbbc
00000240: 28e5 813c 60cc 7dbb 282a 13bd 42f3 4d3d
00000250: c2b2 013d e8ae c7bc 145a e53c e860 263d
00000260: 0c93 3c3d b40e 01bd 226d 5fbd f2c7 773d
00000270: 343a 8dbc 1a36 59bd 44c8 9d3c 18f0 463d
00000280: cc7d 33bd c867 debc 781b 07bd 080f 52bd
00000290: 00c8 66bb e04b e23c c097 ac3c a027 8cbb
000002a0: 5865 543c 705b 143d f8f7 263c 3632 1d3d
000002b0: 8cf5 e63c 3461 ac3c 3a49 03bd 2a5b 5dbd
000002c0: 10a2 193c b0a8 c33c 9ef0 58bd 84dc 82bc
000002d0: 901d 3fbd c83d c73c be0e 0b3d 90d6 5b3c
000002e0: d0a2 3ebc ce26 4d3d 789d 8ebc d20d 0dbd
000002f0: 7267 06bd 6cf4 1bbd 88fb 21bc 927e 1a3d
00000300: 107d e4bb 0021 aebb ccc5 85bc 2ef4 1d3d
00000310: 9eae 7cbd d0cd 82bc b117 b7ba 40f4 f23c
00000320: fc46 e1bc 7c8f 843c 8844 c53c f0f4 53bd
00000330: 6681 03bd d4c1 52bd a41b ecbc 966e 01bd
00000340: a073 e13c 0846 20bd 024b 63bd aef4 643d
00000350: 5cb6 1e3d 2c49 08bd d8ac 523c 840b 22bd
00000360: a253 49bd ea7b 5f3d f006 c2bc d65e 0b3d
00000370: c057 cfbb 6072 02bd 2ab3 4f3d c8ef 65bd
00000380: c868 073c 6076 4a3d 5282 14bd d8e5 15bc
00000390: b293 7fbd 1a43 16bd 023f 61bd 708e 8d3c
000003a0: f8b4 e9bc 30f3 1a3d 12c4 133d f806 76bc
000003b0: ce5d 49bd 4414 113d 7803 763d bacb 2c3d
000003c0: de55 19bb 98a5 b2bc 14b1 473d 960b 1ebd
000003d0: 7c15 c3bc 844d 4fbd fa84 46bd 8ff2 c33a
000003e0: c00c 593b 50c4 23bd d486 3bbd 80b4 b83c
000003f0: 183e 78bd 6c44 ae3c c0d2 bfbb b852 39bc
0.028442375 0.05692341 -0.03856062 -0.0114033595 0.042038247 -0.061299704 -0.05112824 -0.052667156
-0.01969514 0.05226931 -0.0015748958 -0.04729964 -0.03743305 -0.009267025 -0.0029336256 0.058697477
0.013700791 0.035486795 -0.042951263 -0.010728069 0.005982831 0.028281443 -0.039262086 0.020473935
0.0442108 -0.028708719 -0.062467605 -0.03987658 -0.030081078 0.02840431 0.026333101 0.048565105
0.005160533 -0.050234288 0.03639973 -0.0034985095 -0.0076723024 -0.033641197 -0.060680285 -0.013673775
-0.013304636 0.046874203 -0.027435154 -0.046358697 -0.015454754 0.023092434 -0.0091377795 0.009020343
0.034667708 -0.008814938 0.006711833 0.022082478 -0.03363411 0.029155143 -0.04678957 -0.040349074
0.038683176 -0.027859576 0.03182502 0.003621729 -0.026552208 -0.041660987 0.039619043 0.04179465
-0.040580645 -0.006293878 0.04154657 -0.037058324 -0.038351104 0.013598293 0.019617707 -0.062286153
-0.026939489 0.00095544534 -0.027634501 -0.013987638 -0.059336662 0.00013849887 -0.0362515 -0.01629071
-0.048676766 -0.060787484 0.055032715 0.0018905848 -0.048198037 -0.026250668 -0.00914944 0.012010746
0.0061052293 -0.039762378 -0.013741203 0.008732773 0.0047684684 -0.055901267 -0.035599776 -0.0012026355
0.04763846 0.016990922 0.009456791 0.018888421 -0.0059989244 0.007319197 -0.0125373155 0.03924314
-0.00806199 0.037276044 -0.01450786 0.018535882 0.021690682 0.038081355 0.05322636 0.04332193
-0.00519754 0.018857077 -0.0077040046 -0.0334318 0.033832878 -0.02828852 -0.058033213 0.03801918
-0.037040778 -0.034973018 0.033892326 -0.035830006 0.03428047 0.05295013 -0.053797305 -0.045254514
-0.029126503 0.013162412 0.03856679 -0.015186608 -0.058465056 0.008507453 -0.017445639 0.025730424
0.02794601 -0.059101544 -0.059083648 0.048959002 -0.028938808 -0.046685368 -0.03849663 -0.022859223
0.01585634 -0.0038726553 -0.035928875 0.050280817 0.031664617 -0.024375394 0.027997054 0.04061976
0.046038672 -0.031508163 -0.054547437 0.060493417 -0.017239667 -0.05303011 0.019260533 0.048568815
-0.04382114 -0.027149096 -0.03298518 -0.051283866 -0.0035214424 0.02762407 0.021068454 -0.0042771846
0.012963615 0.036220014 0.010190956 0.038377963 0.028193258 0.021042444 -0.032052256 -0.05404202
0.009377018 0.023884147 -0.052963845 -0.01597429 -0.046659052 0.024321452 0.033949606 0.013417855
-0.011635497 0.050085835 -0.017409071 -0.03443701 -0.032813497 -0.038074896 -0.00988663 0.037718363
-0.0069729164 -0.0053139925 -0.016329668 0.038562946 -0.061689965 -0.01596728 -0.0013968853 0.029657483
-0.027499668 0.0161817 0.02408053 -0.051747262 -0.032105826 -0.05145438 -0.028821774 -0.031599604
0.027520955 -0.039129287 -0.055491455 0.055897407 0.03874813 -0.033272907 0.012858592 -0.039561763
-0.049152024 0.054561533 -0.023684949 0.03402599 -0.0063275993 -0.031847358 0.050707974 -0.056136876
0.008264728 0.049429297 -0.036257096 -0.009149037 -0.062396713 -0.036685087 -0.05499173 0.017279834
-0.028528675 0.037829578 0.03607566 -0.01501631 -0.049161725 0.035419717 0.0600619 0.042186476
-0.0023397128 -0.021807477 0.04875286 -0.038585268 -0.023813955 -0.050611034 -0.04846666 0.0014949607
0.0033119172 -0.03998214 -0.04578288 0.022547007 -0.060606092 0.02127286 -0.005853981 -0.011311226

bn2.weight f4 [256]
00000000: 1ab6 933f a88a 8d3f 0934 8f3f 1c17 873f
00000010: 7c1e 883f 32eb 903f 7367 8c3f 697f 883f
00000020: b599 8b3f 2df7 903f a800 873f 200a 943f
00000030: bf61 8e3f 73d5 873f 8144 8a3f f470 8b3f
00000040: 644d 8d3f 39a2 8a3f b268 8e3f 8c84 8e3f
00000050: d6c4 863f 282b 8e3f d4c3 8f3f 831c 8c3f
00000060: 0745 8f3f 55a6 8a3f 4d32 8a3f 525e 883f
00000070: 1580 873f 29b8 903f 2a82 883f 92e6 953f
00000080: 5bc5 913f 5d6f 943f 7167 8e3f 40db 8a3f
00000090: ce0a 933f 5577 903f d104 8f3f f6b0 8c3f
000000a0: e725 8f3f 7e9c 8d3f d034 8d3f 755d 8d3f
000000b0: 382f 813f cd6d 893f 7a86 8b3f 5be7 8b3f
000000c0: 6eec 883f 8b49 8d3f 1cac 8a3f 4408 893f
000000d0: 0066 943f 7a05 8d3f 61ac 863f 93f5 8b3f
000000e0: 8185 8b3f 02ea 8c3f 2b49 913f 1ab8 8e3f
000000f0: b139 913f 2ecb 883f e57d 8c3f 6432 883f
00000100: 9018 8d3f b642 913f 6df2 883f ef58 893f
00000110: 0dd4 8c3f ea0a 853f 1369 8c3f 7071 8b3f
00000120: 22cd 883f f6a1 893f 78b4 8f3f b219 893f
00000130: d323 8b3f ce30 8f3f ce66 8d3f dd47 903f
00000140: f141 8b3f dfc1 8f3f 598c 843f e739 8d3f
00000150: 129c 873f 4084 8d3f a047 903f ec22 953f
00000160: 3658 883f 33b3 873f 1054 8b3f 11e1 8e3f
00000170: ed6a 883f 8ef0 8b3f 8556 903f 4916 8b3f
00000180: a6a3 873f 8d6c 883f ecc1 883f b461 893f
00000190: db68 8d3f 0710 893f 741f 893f 6035 863f
000001a0: 3bf4 853f a02d 8b3f 4d71 8f3f 8d31 893f
000001b0: b2cb 8b3f 15ea 833f 286c 873f 8e15 8c3f
000001c0: f9ac 8b3f e307 893f db2c 873f 7656 8e3f
000001d0: 7a56 883f 7601 893f 1cbc 8f3f 8303 833f
000001e0: cd9c 8d3f 736c 8c3f 6b39 8d3f 59da 863f
000001f0: ccc4 863f bcb9 8a3f fc82 8d3f f126 913f
00000200: 7080 8a3f b907 903f 3245 8c3f 8446 903f
00000210: aee1 883f a30a 8c3f 112b 843f c11a 8b3f
00000220: bbb2 933f 8d32 8e3f 2922 873f 1bae 923f
00000230: 83cd 903f f427 8d3f 9f8a 873f 5d5e 893f
00000240: b613 893f d471 853f b316 8b3f 37f0 893f
00000250: bda9 873f ddce 8c3f cf50 893f 1f12 873f
00000260: 1b02 8a3f 3571 863f adb1 8a3f e531 883f
00000270: 7b45 873f 8ecb 883f 98cb 8a3f 6b0e 8c3f
00000280: accc 8c3f 151e 883f 4865 913f ef15 913f
00000290: 57bf 883f ddf7 843f 5d38 8c3f 896e 903f
000002a0: a057 863f 70f6 913f ea18 913f 0320 8e3f
000002b0: 0f23 8b3f 0c3a 8c3f 7991 8d3f 5a48 8d3f
000002c0: 1dce 8d3f c885 943f 254f 8a3f 29af 8c3f
000002d0: cd03 873f 1cae 8f3f 0a10 8b3f d596 8c3f
000002e0: df75 8a3f 7f95 8a3f e90a 8c3f f4db 8b3f
000002f0: 5f5e 8c3f dd94 893f 3131 903f aae6 8d3f
00000300: 6308 8b3f 88a8 963f 5b91 8e3f a8e5 853f
00000310: 7762 943f 512d 8d3f 7c14 8a3f 0433 873f
00000320: febd 893f bcdf 883f 954c 843f e2b7 8b3f
00000330: 7e15 8b3f 48a4 953f 91d0 8b3f 8380 903f
00000340: 373c 8a3f 3476 8c3f bbc3 8a3f 93e8 8f3f
00000350: c8c7 873f 9db0 8f3f 480f 883f 6a07 8d3f
00000360: 4280 8b3f a481 8c3f a1dd 8c3f 2b9e 853f
00000370: 0789 8d3f d0cc 893f 73c1 8b3f 1fea 903f
00000380: 88c5 8c3f 7cab 8d3f 822f 8c3f ef51 8d3f
00000390: 3ccb 893f 2708 8c3f be54 8f3f 4e68 8c3f
000003a0: fa80 8d3f 0814 903f 548e 933f 99c0 913f
000003b0: 7bb3 8c3f 7bd0 943f 8459 893f d826 8c3f
000003c0: 414e 903f 4f1f 8b3f 8698 8b3f a996 8c3f
000003d0: 6c4b 843f 5213 8b3f b7ae 873f 0514 903f
000003e0: 7a85 933f 33de 863f 9c33 8a3f a19d 8d3f
000003f0: a9f9 873f bd31 8f3f 37e5 893f e862 933f
1.1539948 1.105794 1.1187755 1.0553927 1.0634303 1.1321776 1.096907 1.0663882
1.0906283 1.1325432 1.0547075 1.156559 1.112358 1.0612015 1.0802156 1.0893846
1.1039243 1.0830756 1.11257 1.11342 1.052882 1.110692 1.1231637 1.0946201
1.119294 1.083201 1.07966 1.0653784 1.0585963 1.1306201 1.0664723 1.171099
1.1388353 1.1596485 1.1125318 1.084816 1.1487672 1.1286417 1.1173345 1.0991504
1.1183442 1.1063383 1.1031742 1.1044146 1.0092535 1.0736634 1.0900414 1.0929979
1.0697153 1.1038069 1.0833774 1.0705647 1.1593628 1.1017296 1.0521356 1.0934318
1.0900117 1.1008914 1.1350454 1.1149933 1.1345731 1.0687006 1.097592 1.0640378
1.1023121 1.1348484 1.0698982 1.0730265 1.1002213 1.0393956 1.0969566 1.0893993
1.0687602 1.0752552 1.122695 1.0710967 1.0870308 1.1186769 1.1046999 1.1271931
1.0879499 1.123104 1.0355331 1.1033295 1.0594504 1.1055984 1.1271858 1.1651282
1.065192 1.0601562 1.0885029 1.1162435 1.0657631 1.0932786 1.1276404 1.0866176
1.0596817 1.0658127 1.068418 1.0732942 1.1047624 1.0708016 1.0712724 1.0485039
1.0465158 1.0873299 1.1206452 1.0718247 1.0921538 1.0305811 1.0579882 1.0944078
1.0912162 1.0705532 1.0560564 1.1120136 1.065139 1.0703571 1.1229281 1.0235447
1.1063477 1.0970596 1.1033148 1.0535384 1.0528808 1.0837932 1.1055598 1.1340009
1.0820446 1.1252357 1.0958617 1.127152 1.0693872 1.0940746 1.0325643 1.086754
1.1538919 1.1109177 1.05573 1.1459383 1.1312717 1.1027818 1.0589179 1.0731922
1.070914 1.0425363 1.0866302 1.0776433 1.0598675 1.100063 1.0727786 1.0552405
1.0781893 1.0503298 1.0835472 1.0640227 1.0568079 1.068712 1.0843382 1.09419
1.0999961 1.063418 1.1359034 1.1334819 1.0683392 1.0388142 1.0954701 1.1283733
1.0495491 1.1403332 1.1335728 1.1103519 1.0870074 1.0955215 1.106002 1.1037705
1.1078526 1.1603327 1.0805403 1.0990955 1.0548035 1.1225009 1.086427 1.098353
1.0817221 1.0826873 1.094083 1.0926499 1.09663 1.0748554 1.1265012 1.1086018
1.0861934 1.1770182 1.1138109 1.046071 1.1592549 1.1029454 1.0787501 1.0562444
1.0761106 1.0693278 1.0335871 1.0915492 1.0865934 1.169076 1.0923024 1.1289219
1.0799626 1.0973573 1.0840982 1.1242851 1.0607843 1.1225773 1.0629663 1.1017888
1.0898516 1.0977063 1.1005136 1.0438894 1.1057442 1.0765629 1.0918411 1.1321448
1.0997782 1.1067958 1.0951998 1.1040629 1.0765147 1.0939988 1.1197736 1.0969331
1.1054986 1.1256113 1.152781 1.1386901 1.0992273 1.1626123 1.0730443 1.0949354
1.1273881 1.086893 1.0905921 1.0983478 1.0335517 1.0865271 1.0600194 1.125611
1.1525109 1.053656 1.0797 1.106373 1.0623065 1.1187054 1.0773076 1.1514559

bn2.bias f4 [256]
00000000: b256 6d3d 9392 e63c d061 993c 539b cc3c
00000010: 84c2 283d 9e49 c73c 90c0 823c 2602 013d
00000020: 032e 203d a22e 6d3d b460 023a 98bb 8b3d
00000030: d5ea 333d 1e17 3a3c 509b 313c 5fd8 bf3c
00000040: 6286 543d 9878 993c 683b bc3c 69ff aa3c
00000050: 1320 513d 2651 393d db73 3e3c 7b68 133d
00000060: cd93 443d e4d7 d03c 3f84 363d 1560 ce3c
00000070: 555c 383d 0b95 0b3d efdb 543c 6ab0 633d
00000080: 2d6a 483d 2e69 6e3d 4e31 f23c bf71 183d
00000090: a881 483d e793 273d 6ed4 333d db53 c83c
000000a0: ac2d 273d 4d05 193d 5181 493c fff1 633d
000000b0: 55fb 0ebc 569a 0f3d 3446 c13c 2e8c a33c
000000c0: 0e89 df3c 150b 09bb 073f 4c3d 4e9d b73b
000000d0: a5b2 ab3c d676 263d 5f50 c03c 6045 803d
000000e0: d890 eb3c ec01 4e3d 6cf8 ff3c 9e82 d23c
000000f0: b766 4d3c 742a ef3c a671 233c a691 ba3c
00000100: 9937 4a3d 40c2 423d fa43 483d 2bb3 cf3c
00000110: 2f52 353d cc4c 143d 9565 c33c 9f34 1e3d
00000120: 95e2 673d ce3a be3c 63f3 363c b29f 703d
00000130: d7eb fd3c 3851 443d 8c0d 0a3d 7857 3e3d
00000140: d608 fb3c eee4 763d 70d5 e13c fea3 853d
00000150: ecdf d83c bd1d 123d be60 293d 6d9e ec3c
00000160: 923c af3c 9ec4 a23c b816 0c3c 8f1b 1e3d
00000170: af81 b03c 7ab2 683d 8572 f63c 97fa de3c
00000180: 1930 8639 9c89 0a3d 097e c63c 7215 be3c
00000190: 6738 643d 976d 8d3c 0eeb 463d 1724 9a3c
000001a0: 239f 823b d39a fd3c c700 083d c6da 103c
000001b0: 9592 593d a6bb 023d 9f33 b43c 2f00 6c3d
000001c0: aaea 783c f82c 743d f7cd 903c e122 693d
000001d0: 5053 cf3c 4ec2 c43c 98c9 fb3c 9662 d83b
000001e0: cfe6 7e3c d8ad f43c ed8c 9c3d 464a 2e3d
000001f0: d6f7 ee3b 0f4b 443c 6050 3d3d a9f3 9e3c
00000200: f91c c03c 0ed0 2a3c f4da 213d 27c1 373d
00000210: 16e1 133d aaef ca3c 8b94 90ba bf4b d73c
00000220: 5978 0c3d f20b 683d eefe 1e3d ea41 5e3d
00000230: 8169 513c 58cb 2e3d 74f5 bc3c 51e2 053d
00000240: f5e4 b63c ee7e 223d 8b88 933c 4080 a33c
00000250: b86d 883c d43c a83d 5b1f bd3c 8a7f f33c
00000260: f2e1 a63c 8822 0a3d e76a ec3c ca36 b53c
00000270: 0a59 153d a112 403c 0f7f 353c 79ab 853d
00000280: 5da2 3b3d 9d7d da3c 77f5 5d3d 0f88 173d
00000290: 40fb 1c3d 89f9 253c c6eb 313d 225f e13c
000002a0: 3815 513c f846 893d 25e6 173d 8036 863c
000002b0: fe64 153d f735 d93b 626f f73c 34a4 f43c
000002c0: d1dc 1c3d 9c49 363d 040c a33c 7668 6e3c
000002d0: 5227 023d 105c f13c 5dbd 083d 25f3 893d
000002e0: b561 383d 7b3e 493d 6c6b 393d bf4d f53c
000002f0: 1e63 4d3d 0a62 073d 4891 2f3d ef65 0c3d
00000300: 5bff 293d b55a 833d 602b 0e3d 6049 e83c
00000310: a3ee 523d fd47 013d ae28 293c 6e03 083d
00000320: ae59 213d 1457 e73c dfde 093d 05c7 373d
00000330: e062 0d3d 6f5f 3e3d 8c95 4b3c 03d4 da3c
00000340: 4af7 303d 1731 103d 33b6 bb3c 6b2b 663c
00000350: 29a1 2a3c ebeb 2b3d cb1a fd3c a993 de3c
00000360: b9ba a23c 5ec0 dc3c 9769 5a3d 879a bf3c
00000370: 41a8 a33c 0574 253d 3212 d83c 2651 303d
00000380: 199a cc3b c4fd d83c cc97 b23c 9df9 5e3d
00000390: fe3a a53c f0cb 5c3d 732b 393d d1e4 5c3d
000003a0: 2f4b 7e3d 9e39 f73c 11e6 603d b297 943c
000003b0: 3bbd 573d cb61 183d 46b8 643c fbf8 343d
000003c0: bea0 b73c 92c3 7e3d eb2e 573d 217b c93c
000003d0: 9dc7 013d 62dc 343d 5879 593d f5f9 383d
000003e0: 905d 103d e968 963c 7390 b23c 8ef1 933c
000003f0: 668c cc3c c713 2b3d cbb6 b93c d964 843d
0.057944007 0.028146064 0.018723398 0.024976408 0.04120113 0.024327096 0.015960962 0.03149619
0.03910638 0.0579058 0.00049735163 0.0682289 0.043925125 0.011358051 0.010840252 0.023418603
0.05188597 0.018734261 0.022977546 0.020873742 0.05105598 0.045243405 0.011624302 0.035988312
0.047992516 0.02549357 0.044559713 0.0251923 0.04500993 0.034077685 0.012991889 0.055588163
0.048929382 0.058205776 0.029564526 0.03721785 0.048951775 0.040912535 0.04390376 0.024454048
0.04081504 0.03735857 0.012298898 0.055650707 -0.008726914 0.035059296 0.023593046 0.019964304
0.027287032 -0.0020911146 0.049864795 0.005603469 0.020959208 0.040640675 0.023475824 0.06263232
0.02875559 0.0502948 0.031246386 0.025697049 0.012536696 0.029195048 0.009975826 0.022774529
0.04936943 0.047548532 0.048892953 0.025353989 0.04426783 0.03620605 0.023852149 0.038624402
0.05661257 0.0232214 0.011166426 0.058746047 0.030996246 0.04792902 0.033704326 0.046470135
0.030643862 0.060276918 0.027567595 0.0652542 0.026473962 0.035672892 0.041352026 0.028884137
0.021391187 0.019869145 0.008550338 0.0386005 0.021546213 0.056810834 0.030083904 0.0272191
0.00025594307 0.03382264 0.02423002 0.023203585 0.055717852 0.01726417 0.04856401 0.018816037
0.0039862557 0.030957615 0.033203866 0.008841222 0.053118307 0.031917237 0.021997271 0.057617363
0.015192667 0.059613198 0.017676337 0.05691803 0.025308281 0.024018433 0.030735776 0.0066035492
0.015557959 0.029868051 0.07644067 0.0425513 0.007292728 0.011980786 0.04621923 0.019403296
0.023451315 0.010425581 0.03951545 0.04486194 0.03610333 0.024772484 -0.0011030597 0.026281236
0.03429446 0.056652017 0.03881734 0.05426208 0.012781502 0.042674392 0.02306626 0.032686535
0.022325972 0.03967183 0.018009445 0.019958615 0.01665388 0.08214727 0.02308624 0.029723901
0.020371411 0.033724338 0.028859569 0.022120852 0.036461867 0.0117231915 0.011077656 0.065268464
0.04580914 0.026671225 0.05418917 0.03699499 0.03832555 0.010130295 0.04343774 0.027511183
0.012761407 0.06702989 0.037084717 0.01638341 0.036473267 0.0066287476 0.030204479 0.029863454
0.038296524 0.044503793 0.01990319 0.014551273 0.03177578 0.029462844 0.033383716 0.06735829
0.045015056 0.04913185 0.04526846 0.029944299 0.050143354 0.03305248 0.04286316 0.0342769
0.04150329 0.06413785 0.034709334 0.0283553 0.051497113 0.031562794 0.01032464 0.033206396
0.039392166 0.028239764 0.033659812 0.044867534 0.034518123 0.04647773 0.0124257915 0.026712423
0.043204583 0.035203066 0.022914028 0.014048438 0.0104144 0.041973036 0.030896565 0.02717002
0.019864427 0.026947197 0.053323355 0.023389114 0.01997769 0.040393848 0.026375864 0.04304614
0.006243956 0.026488192 0.021800898 0.05443727 0.020169731 0.053905427 0.045207452 0.053929154
0.06208342 0.030178841 0.05490691 0.01813874 0.0526707 0.037202638 0.01395995 0.04418276
0.022415515 0.06219823 0.05253498 0.024594845 0.031684507 0.044155486 0.053094238 0.045160253
0.03524548 0.018360572 0.021797394 0.018059518 0.024969291 0.041766908 0.02267017 0.06464548

bn2.running_mean f4 [256]
00000000: e919 6bbe cc07 e3be ea75 17bf 2e0a 05be
00000010: b83f dcbe dc1a 43bf 2564 4b3e 6d9a dfbe
00000020: d7da 00bf 3f90 45be 82af fc3e b7f9 7cbf
00000030: 563b bdbd 6b61 1bbd 0cec 30be d406 d13d
00000040: 6184 6abf b0c8 c93e 9df0 273e 0ca4 d33e
00000050: 6238 44be 63a3 1cbf 14ae e2bd cd64 9a3e
00000060: 9642 f43d 66a4 37bf d4c6 77bf 6cc5 b9be
00000070: f972 6fbe bd80 fdbe 70a2 4d3e 0668 85be
00000080: 65ec d0be 8c9c 00be 0343 aebd 5748 37be
00000090: 619b 42bf 4ee4 49bf f99a ebbe 175c cb3e
000000a0: c720 ccbc 6361 293f 7ab2 f1bd cfac 0abe
000000b0: 20ac 753c 5f93 c13e 8eea 12bf 9e05 d3bd
000000c0: 0114 0a3f 16e7 af3e 3142 05bf 2af5 5bbe
000000d0: 1f60 f03d faca 2bbf cc1a 73bf a9b5 c23e
000000e0: 4a20 3d3e 3969 d3be cdf6 00bf afe6 403d
000000f0: 6fa5 34bf 5ad5 1f3d 8ffd 3f3e 4cbe 9cbe
00000100: bc43 d1be df00 5a3e 574c e4bc 7358 52bf
00000110: 6e2c 6dbe 34a5 de3c 75ff 323e 95e5 17bf
00000120: 3fe3 c5be 9d73 d73e 6ffb 4bbe 7cbb b2be
00000130: 4571 0abf f962 36be d892 6bbe a630 a63d
00000140: 65c6 6f3d 9786 33bf 8ea5 513d e205 d1be
00000150: 9e51 743e ab21 49be c9c9 e7be fe77 19bf
00000160: 76bd 0a3b c2a5 7fbd aff7 a63e 9863 f8be
00000170: 9fac 8b3e 0438 64bf 984e aabe 3f77 15bf
00000180: 04cf 253f 61ba 26be 05d8 11be 78d5 443d
00000190: 7b62 ef3d 3bc6 97be 8b72 70bc 40d5 f83c
000001a0: 2746 38bf 158b acbe f86c edbe 5066 94be
000001b0: b620 58be 6021 cabe 6d74 a6be 0d77 08be
000001c0: a578 883d 4e09 4ebe eb10 83be a7ca 36bf
000001d0: 9f98 0d3f bb72 803d ffad fcbe 370f 5bbd
000001e0: cad3 c2be 04d3 cabc dc9d d7be 3c85 853e
000001f0: a71f 0bbf 213d 1e3e ab54 abbd 4621 dfbe
00000200: 75dc 29be 4658 50bf 8fa0 f33c c358 cdbe
00000210: f2da 923e 5641 053e cb75 ac3e 53fe 03bf
00000220: 685b 0fbe 6e34 de3c 47ec 2cbf d4b2 8bbe
00000230: 94db e9bd e221 bbbe 86eb 88bb 39d0 77be
00000240: 5c86 093e 58b2 a8be fd52 983d e2d9 59be
00000250: e019 e7be 589b b3be 4b56 9a3e 02c3 9bbe
00000260: 05fc 49be eb2d a23d df86 87bd a0cb bbbe
00000270: 490b 0d3f d747 18bf 66e4 173e 1ec0 553e
00000280: 04fc c0be 98a1 e73e 302d dbbe 55df 32bf
00000290: 9bdf f5be ae51 4bbe c73c cbbd 0cb0 95be
000002a0: 7b5f 07bf 1743 4bbe a4f5 d8be c96c 3abe
000002b0: f663 61be 9671 e13e 63aa 15bf 86d8 05bf
000002c0: 2ea8 0cbf 15e7 623e 3f30 10bf 4290 fb3e
000002d0: 17c0 b8be e5e0 8abd 61de 81be a045 003e
000002e0: 0080 17be b955 b0be 8445 4dbe 36ab b8be
000002f0: f5e6 e03e 172a 23bf df4a 49bf fe22 d6be
00000300: 3f08 17bf 8f11 cb3e 247a 6fbe 212f 74bd
00000310: b690 c8bf c395 babc 5049 3ebb b928 123e
00000320: e11e 5abe f7cb b0bd b583 073e de4f 37bf
00000330: 8f3a 09bf a911 0abd ded8 c6bd b8af 83be
00000340: ce13 27bf db7e a63e 3bd0 98be 05f2 3bbf
00000350: 5529 d1bd 1ec6 02bf d004 a43e eb9d bfbc
00000360: 416b 98be c33f 833e 808b a5be 739e 123f
00000370: 5b23 05bf c226 19bf 0c0e d73d 75a4 25be
00000380: 0d2b b23e c698 65bd 4772 3ebf d752 1fbe
00000390: 9bce 9a3e b584 16bf f688 05bc 5ac8 e4be
000003a0: 8269 b0be 4a66 19bf 4ea1 1bbe 541c f9be
000003b0: 1542 09bf c072 cebe 75b7 b23d 6bff a9be
000003c0: 2ca5 29bf d908 21bf 62d1 73be 40a4 bdbe
000003d0: a2a8 9ebe 887e 83bf 2048 b7be 081d 05bf
000003e0: 317e babe 0b37 ef3e 645f 6fbe 28dc d23e
000003f0: 45a4 953e 16ef fdbe faef 30be 123c 86be
-0.22959103 -0.44341886 -0.591643 -0.12992164 -0.43017364 -0.7621286 0.19862421 -0.43672505
-0.50333923 -0.19293307 0.49352652 -0.98818535 -0.09239833 -0.037934702 -0.17277545 0.102063805
-0.91608244 0.39410925 0.1640038 0.41336095 -0.19162133 -0.6118681 -0.11068359 0.3015503
0.11926763 -0.7173523 -0.9678776 -0.36283433 -0.23383702 -0.49512282 0.20081496 -0.26055926
-0.40805355 -0.12559718 -0.08508875 -0.17898689 -0.7601834 -0.7886399 -0.46016672 0.39718696
-0.024917973 0.66164225 -0.1180162 -0.13542484 0.014994651 0.37807748 -0.5738915 -0.10303806
0.53936774 0.34355992 -0.52054125 -0.21480241 0.11737084 -0.6710659 -0.94962764 0.3802922
0.18469349 -0.41291216 -0.5037659 0.047094997 -0.7056493 0.039021827 0.18749069 -0.30613935
-0.4087199 0.21289395 -0.027868433 -0.8216621 -0.2316148 0.027178384 0.17480262 -0.5933469
-0.38649938 0.42080393 -0.19920133 -0.34908664 -0.54079086 -0.17811193 -0.23005235 0.08114748
0.058538813 -0.7012724 0.051183276 -0.408248 0.2385926 -0.1964175 -0.45271137 -0.5994872
0.0021170056 -0.06241394 0.32610843 -0.48513484 0.27280137 -0.89147973 -0.33263087 -0.5838508
0.64769006 -0.16282035 -0.14242561 0.048055142 0.116887055 -0.29643425 -0.014675747 0.030375123
-0.71982044 -0.3369986 -0.463722 -0.28984308 -0.21106228 -0.39478588 -0.325107 -0.13326664
0.06663636 -0.20120737 -0.25598845 -0.7140297 0.55311006 0.06271883 -0.49351498 -0.053481307
-0.38052207 -0.024758823 -0.42112625 0.26078212 -0.5434517 0.15453006 -0.083657585 -0.43580073
-0.16588004 -0.81384695 0.029739646 -0.40106782 0.28682667 0.13013205 0.3368362 -0.5155994
-0.13999712 0.02712461 -0.6754803 -0.27284873 -0.11418834 -0.36549288 -0.004178467 -0.24200524
0.1343016 -0.32948565 0.07437704 -0.21274522 -0.4513693 -0.35079455 0.3014396 -0.30422217
-0.19725044 0.079189144 -0.066175215 -0.3667879 0.55095345 -0.5948462 0.14833221 0.20874068
-0.37692273 0.45240474 -0.42807913 -0.6987203 -0.4802216 -0.19855377 -0.09923702 -0.29235876
-0.52880067 -0.19849811 -0.4237491 -0.1820556 -0.22010788 0.44031972 -0.58463115 -0.52283514
-0.5494412 0.22158463 -0.5632362 0.49133497 -0.36084053 -0.067811765 -0.25364974 0.1252656
-0.14794922 -0.344404 -0.2004605 -0.36068124 0.43926206 -0.637361 -0.7862987 -0.41823572
-0.5899696 0.39661834 -0.23386437 -0.059615258 -1.5669162 -0.02277649 -0.0029035397 0.14273347
-0.21300842 -0.08632653 0.13233836 -0.7160624 -0.5360498 -0.03370825 -0.09709333 -0.2572
-0.65264595 0.32518658 -0.29846367 -0.7341617 -0.102129616 -0.5108355 0.32034922 -0.02339073
-0.29769328 0.25634584 -0.32332993 0.57273024 -0.52007073 -0.59824765 0.10500726 -0.16176017
0.3479847 -0.0560539 -0.74393123 -0.15558945 0.30235752 -0.58796245 -0.00815033 -0.44684106
-0.34455496 -0.59921706 -0.15198252 -0.48654425 -0.5361646 -0.40321922 0.08726398 -0.3320268
-0.6626766 -0.62904125 -0.23810342 -0.37039375 -0.30988032 -1.0272989 -0.35797215 -0.51997423
-0.364244 0.46721682 -0.23376232 0.4118359 0.2922689 -0.4959647 -0.17279044 -0.26217705

bn2.running_var f4 [256]
00000000: fefc a43e a0ad 3a3e 11b1 a63e 5bf8 843e
00000010: f1ae 3e3e 8d12 7a3e 81b8 503e 9332 573e
00000020: 5c96 533e fb36 633e 05ab cd3e 55ed 9c3e
00000030: cc56 5b3e 4f49 343e 238c 143e f769 9e3e
00000040: 8551 8e3e 1b51 493e 8494 ab3e 2d16 763e
00000050: 9112 d13e c203 7f3e 2375 aa3e f027 653e
00000060: 13bb 2f3e 6f72 683e 0f8a b33e 6c82 2d3e
00000070: dccf 523e 8639 693e dabe 573e a430 813e
00000080: 1685 4a3e 74d0 b03e c8b5 8e3e f181 103e
00000090: 3166 7e3e 3521 5b3e 0681 d63e d444 923e
000000a0: d58b 863e 8fb7 5f3e 701e 873e bd1b 973e
000000b0: ada2 603e e401 773e c6b4 813e 0677 803e
000000c0: bf9f 4d3e bf12 e33e e5a1 6c3e 19ae 663e
000000d0: cf37 c93e de09 883e 6da1 403e 733c cd3e
000000e0: 1617 973e 8b4a 773e 2a14 803e 1365 873e
000000f0: c8ab b03e 38c9 a83e a649 803e 4c54 973e
00000100: 0ddb 3c3e 86f8 763e 2229 963e 5e6a 483e
00000110: 10f8 983e a430 8a3e 7586 513e 819f 203e
00000120: 43dd bc3e 2967 803e 99dc 793e 3092 2f3e
00000130: 46ba 503e 810f 823e 8faa 8e3e 8db8 c33e
00000140: c4f9 953e e089 de3e d332 903e 9b4a 933e
00000150: 6684 593e a89c 753e 661e 443e 0440 993e
00000160: 6d0d 9d3e 008e 6f3e 43b6 443e 8443 6d3e
00000170: 93af a13e 4ea9 783e af3e 603e b889 863e
00000180: 5d70 2b3e 5060 c43e 3838 7a3e 3a32 5a3e
00000190: a105 753e 3ff8 543e 29b4 693e fc8b 883e
000001a0: 294e 703e 4637 6d3e 9bfd 423e d581 743e
000001b0: 06a9 853e 8ffc ac3e 18b2 5f3e 1480 b23e
000001c0: ebfe 9f3e b46d 8a3e 1edf 423e 388d 2b3e
000001d0: 9da0 983e 3d94 823e d2b9 813e bc10 4a3e
000001e0: ffc1 3c3e b852 713e 8a93 ae3e 549f 5a3e
000001f0: 0d79 5f3e bc56 543e ce5e 7c3e b33b 843e
00000200: 46ef 223e 1fdb 803e dc06 803e b713 6e3e
00000210: 92d3 863e 580f ab3e 5960 8f3e 7a2d 403e
00000220: 4930 7c3e a69b 823e bf26 7a3e 33d5 723e
00000230: ccd0 213e 1621 613e 2aa3 633e 3a1a 9c3e
00000240: 8520 623e 0546 903e bb83 313e 2086 193e
00000250: b696 723e 17ff ae3e f7e8 8f3e d07b 253e
00000260: 7f9b c73e 7cfe 3f3e 99ac 723e a8f5 813e
00000270: 356e 9a3e 49d2 313e 4f0b 1b3e 4deb 823e
00000280: 2f5a 993e c1b3 9f3e c311 943e 53fb 693e
00000290: c227 9b3e d918 833e a071 743e 0fcc 3e3e
000002a0: c539 623e 9ca8 333e 0e56 873e 2e44 aa3e
000002b0: 4dcf 403e 67fc 9b3e f7bc 9f3e dfb1 763e
000002c0: cbbb 9e3e 9a24 963e 9f5c 423e e29d 8e3e
000002d0: 7919 7f3e 9b85 863e f7bb 443e 87a1 773e
000002e0: a37b 583e 0bca c03e 6784 223e 9cc9 843e
000002f0: e8f3 9e3e 4f48 933e cf5d 8e3e 8c7e 843e
00000300: 8d53 143e ad10 633e 9999 9d3e 5548 8d3e
00000310: 7c65 a13e c4a2 7a3e b149 8e3e 94ae 9d3e
00000320: 18e8 8a3e d5ee 4e3e 8691 ae3e 008e 683e
00000330: df33 a83e 9016 583e 1a5d aa3e 456a 833e
00000340: 8105 763e 43e6 a33e d107 6d3e b461 423e
00000350: 058a a33e 9e47 b93e 05bf 8a3e b88f 633e
00000360: 344d 473e 1708 623e 6135 7e3e 574f 663e
00000370: e2bc 5b3e b991 923e 281a 833e dc8f 833e
00000380: d6c0 863e 9b73 c43e cbd7 8b3e 7f11 a83e
00000390: b6c6 873e dd7f 803e 3e2e 923e d0c3 4b3e
000003a0: e96c cd3e b53b 4b3e 325b eb3e 6b9e 4b3e
000003b0: e024 a63e 993f 643e 9396 3f3e b476 4e3e
000003c0: d05c 753e ed64 633e 39b1 9d3e b6d5 ee3e
000003d0: dfb3 893e ef17 963e d660 943e 4c54 683e
000003e0: a833 9c3e 3290 8f3e 4f29 6a3e 3b2f 703e
000003f0: 0a7f 563e d1dc 8a3e 1487 513e d25f c63e
0.32224268 0.18230295 0.32556966 0.2597073 0.18621422 0.24421139 0.20382883 0.21015386
0.20662826 0.22188942 0.4016954 0.3064982 0.21419829 0.1760609 0.14506583 0.3094022
0.2779657 0.19659846 0.33511746 0.24031897 0.40834478 0.24903777 0.33292493 0.22378516
0.17161207 0.22699903 0.35066268 0.16944283 0.20587105 0.2277585 0.21068898 0.25232422
0.19777331 0.34534037 0.27873063 0.14112069 0.2484367 0.21399386 0.41895312 0.28568137
0.26278558 0.21847366 0.2639041 0.2951335 0.21937056 0.24121815 0.25333232 0.25090808
0.2008047 0.4435024 0.23108633 0.2252735 0.3930039 0.26570028 0.18811579 0.40085182
0.295098 0.2414953 0.25015384 0.264443 0.3450606 0.32966018 0.2505619 0.295565
0.18442936 0.24118242 0.29328257 0.19571826 0.29876757 0.26990235 0.20461448 0.15685846
0.3688756 0.25078705 0.24400558 0.1714561 0.20383558 0.25402454 0.278645 0.3822674
0.2929212 0.43464565 0.28163776 0.28767857 0.21241912 0.23985541 0.19152221 0.29931653
0.30674306 0.23394012 0.19210152 0.23170286 0.31579265 0.24283335 0.21898912 0.26276946
0.16742082 0.3835473 0.24435508 0.21308222 0.23927929 0.20797823 0.22822632 0.266693
0.23467316 0.23165616 0.19042055 0.23877652 0.26105517 0.33786437 0.21845281 0.3486334
0.31249174 0.27036822 0.19030425 0.1675309 0.29810038 0.25503722 0.25337082 0.19732946
0.18433379 0.23566711 0.34096938 0.21349841 0.21823521 0.20736212 0.2464554 0.25826797
0.15911588 0.25167176 0.25005233 0.23249708 0.2633329 0.33410144 0.28003195 0.18767348
0.24627794 0.25509375 0.24428843 0.23714142 0.15802306 0.21985278 0.22230211 0.3048876
0.22082718 0.2817842 0.17335407 0.14992571 0.23690304 0.34178993 0.28107426 0.16160512
0.38985822 0.18749422 0.23698653 0.25382733 0.30162206 0.17365374 0.15141033 0.25570145
0.29951617 0.3119183 0.289198 0.22849779 0.3030377 0.25604895 0.2387147 0.1863253
0.2209235 0.17544788 0.26432842 0.33255142 0.18829079 0.30466005 0.31198856 0.2409129
0.3100265 0.293248 0.18980645 0.2785483 0.24912061 0.26273808 0.19212328 0.24182712
0.21140914 0.37654147 0.1587082 0.25935066 0.3104546 0.28766105 0.27805945 0.25877798
0.14484997 0.2217433 0.30781248 0.27594247 0.3152274 0.24476153 0.27790597 0.30797255
0.27130198 0.20208295 0.340954 0.22710419 0.32852075 0.21102357 0.33274156 0.25667015
0.24025537 0.32011613 0.23147513 0.18982583 0.31941238 0.36187452 0.2709886 0.22222793
0.19463044 0.22073399 0.2482505 0.22491203 0.21458772 0.28626803 0.25605893 0.25695693
0.26318997 0.3836945 0.27313074 0.32825848 0.26518792 0.25097552 0.28550905 0.19898915
0.40122154 0.19846995 0.45968014 0.1988465 0.32450008 0.22289886 0.18709783 0.20162469
0.23961186 0.22206469 0.30799273 0.46647424 0.26895043 0.29315135 0.2898013 0.22688407
0.3050816 0.280397 0.2286732 0.23455517 0.20946899 0.27121595 0.20461684 0.3874498
